{"format": "layers-model", "generatedBy": "keras v2.9.0", "convertedBy": "TensorFlow.js Converter v3.19.0", "modelTopology": {"keras_version": "2.9.0", "backend": "tensorflow", "model_config": {"class_name": "Functional", "config": {"name": "model", "layers": [{"class_name": "InputLayer", "config": {"batch_input_shape": [null, 300, 300, 3], "dtype": "float32", "sparse": false, "ragged": false, "name": "input_1"}, "name": "input_1", "inbound_nodes": []}, {"class_name": "Conv2D", "config": {"name": "stem_conv", "trainable": true, "dtype": "float32", "filters": 32, "kernel_size": [3, 3], "strides": [2, 2], "padding": "same", "data_format": "channels_last", "dilation_rate": [1, 1], "groups": 1, "activation": "linear", "use_bias": false, "kernel_initializer": {"class_name": "VarianceScaling", "config": {"scale": 2.0, "mode": "fan_out", "distribution": "truncated_normal", "seed": null}, "shared_object_id": 1}, "bias_initializer": {"class_name": "Zeros", "config": {}}, "kernel_regularizer": null, "bias_regularizer": null, "activity_regularizer": null, "kernel_constraint": null, "bias_constraint": null}, "name": "stem_conv", "inbound_nodes": [[["input_1", 0, 0, {}]]]}, {"class_name": "BatchNormalization", "config": {"name": "stem_bn", "trainable": true, "dtype": "float32", "axis": [3], "momentum": 0.9, "epsilon": 0.001, "center": true, "scale": true, "beta_initializer": {"class_name": "Zeros", "config": {}}, "gamma_initializer": {"class_name": "Ones", "config": {}}, "moving_mean_initializer": {"class_name": "Zeros", "config": {}}, "moving_variance_initializer": {"class_name": "Ones", "config": {}}, "beta_regularizer": null, "gamma_regularizer": null, "beta_constraint": null, "gamma_constraint": null}, "name": "stem_bn", "inbound_nodes": [[["stem_conv", 0, 0, {}]]]}, {"class_name": "Activation", "config": {"name": "stem_swish", "trainable": true, "dtype": "float32", "activation": "swish"}, "name": "stem_swish", "inbound_nodes": [[["stem_bn", 0, 0, {}]]]}, {"class_name": "Conv2D", "config": {"name": "stack_0_block0_fu_conv", "trainable": true, "dtype": "float32", "filters": 16, "kernel_size": [3, 3], "strides": [1, 1], "padding": "same", "data_format": "channels_last", "dilation_rate": [1, 1], "groups": 1, "activation": "linear", "use_bias": false, "kernel_initializer": {"class_name": "VarianceScaling", "config": {"scale": 2.0, "mode": "fan_out", "distribution": "truncated_normal", "seed": null}, "shared_object_id": 1}, "bias_initializer": {"class_name": "Zeros", "config": {}}, "kernel_regularizer": null, "bias_regularizer": null, "activity_regularizer": null, "kernel_constraint": null, "bias_constraint": null}, "name": "stack_0_block0_fu_conv", "inbound_nodes": [[["stem_swish", 0, 0, {}]]]}, {"class_name": "BatchNormalization", "config": {"name": "stack_0_block0_fu_bn", "trainable": true, "dtype": "float32", "axis": [3], "momentum": 0.9, "epsilon": 0.001, "center": true, "scale": true, "beta_initializer": {"class_name": "Zeros", "config": {}}, "gamma_initializer": {"class_name": "Ones", "config": {}}, "moving_mean_initializer": {"class_name": "Zeros", "config": {}}, "moving_variance_initializer": {"class_name": "Ones", "config": {}}, "beta_regularizer": null, "gamma_regularizer": null, "beta_constraint": null, "gamma_constraint": null}, "name": "stack_0_block0_fu_bn", "inbound_nodes": [[["stack_0_block0_fu_conv", 0, 0, {}]]]}, {"class_name": "Activation", "config": {"name": "stack_0_block0_fu_swish", "trainable": true, "dtype": "float32", "activation": "swish"}, "name": "stack_0_block0_fu_swish", "inbound_nodes": [[["stack_0_block0_fu_bn", 0, 0, {}]]]}, {"class_name": "Conv2D", "config": {"name": "stack_1_block0_sortcut_conv", "trainable": true, "dtype": "float32", "filters": 64, "kernel_size": [3, 3], "strides": [2, 2], "padding": "same", "data_format": "channels_last", "dilation_rate": [1, 1], "groups": 1, "activation": "linear", "use_bias": false, "kernel_initializer": {"class_name": "VarianceScaling", "config": {"scale": 2.0, "mode": "fan_out", "distribution": "truncated_normal", "seed": null}, "shared_object_id": 1}, "bias_initializer": {"class_name": "Zeros", "config": {}}, "kernel_regularizer": null, "bias_regularizer": null, "activity_regularizer": null, "kernel_constraint": null, "bias_constraint": null}, "name": "stack_1_block0_sortcut_conv", "inbound_nodes": [[["stack_0_block0_fu_swish", 0, 0, {}]]]}, {"class_name": "BatchNormalization", "config": {"name": "stack_1_block0_sortcut_bn", "trainable": true, "dtype": "float32", "axis": [3], "momentum": 0.9, "epsilon": 0.001, "center": true, "scale": true, "beta_initializer": {"class_name": "Zeros", "config": {}}, "gamma_initializer": {"class_name": "Ones", "config": {}}, "moving_mean_initializer": {"class_name": "Zeros", "config": {}}, "moving_variance_initializer": {"class_name": "Ones", "config": {}}, "beta_regularizer": null, "gamma_regularizer": null, "beta_constraint": null, "gamma_constraint": null}, "name": "stack_1_block0_sortcut_bn", "inbound_nodes": [[["stack_1_block0_sortcut_conv", 0, 0, {}]]]}, {"class_name": "Activation", "config": {"name": "stack_1_block0_sortcut_swish", "trainable": true, "dtype": "float32", "activation": "swish"}, "name": "stack_1_block0_sortcut_swish", "inbound_nodes": [[["stack_1_block0_sortcut_bn", 0, 0, {}]]]}, {"class_name": "Conv2D", "config": {"name": "stack_1_block0_MB_pw_conv", "trainable": true, "dtype": "float32", "filters": 32, "kernel_size": [1, 1], "strides": [1, 1], "padding": "valid", "data_format": "channels_last", "dilation_rate": [1, 1], "groups": 1, "activation": "linear", "use_bias": false, "kernel_initializer": {"class_name": "VarianceScaling", "config": {"scale": 2.0, "mode": "fan_out", "distribution": "truncated_normal", "seed": null}, "shared_object_id": 1}, "bias_initializer": {"class_name": "Zeros", "config": {}}, "kernel_regularizer": null, "bias_regularizer": null, "activity_regularizer": null, "kernel_constraint": null, "bias_constraint": null}, "name": "stack_1_block0_MB_pw_conv", "inbound_nodes": [[["stack_1_block0_sortcut_swish", 0, 0, {}]]]}, {"class_name": "BatchNormalization", "config": {"name": "stack_1_block0_MB_pw_bn", "trainable": true, "dtype": "float32", "axis": [3], "momentum": 0.9, "epsilon": 0.001, "center": true, "scale": true, "beta_initializer": {"class_name": "Zeros", "config": {}}, "gamma_initializer": {"class_name": "Ones", "config": {}}, "moving_mean_initializer": {"class_name": "Zeros", "config": {}}, "moving_variance_initializer": {"class_name": "Ones", "config": {}}, "beta_regularizer": null, "gamma_regularizer": null, "beta_constraint": null, "gamma_constraint": null}, "name": "stack_1_block0_MB_pw_bn", "inbound_nodes": [[["stack_1_block0_MB_pw_conv", 0, 0, {}]]]}, {"class_name": "Conv2D", "config": {"name": "stack_1_block1_sortcut_conv", "trainable": true, "dtype": "float32", "filters": 128, "kernel_size": [3, 3], "strides": [1, 1], "padding": "same", "data_format": "channels_last", "dilation_rate": [1, 1], "groups": 1, "activation": "linear", "use_bias": false, "kernel_initializer": {"class_name": "VarianceScaling", "config": {"scale": 2.0, "mode": "fan_out", "distribution": "truncated_normal", "seed": null}, "shared_object_id": 1}, "bias_initializer": {"class_name": "Zeros", "config": {}}, "kernel_regularizer": null, "bias_regularizer": null, "activity_regularizer": null, "kernel_constraint": null, "bias_constraint": null}, "name": "stack_1_block1_sortcut_conv", "inbound_nodes": [[["stack_1_block0_MB_pw_bn", 0, 0, {}]]]}, {"class_name": "BatchNormalization", "config": {"name": "stack_1_block1_sortcut_bn", "trainable": true, "dtype": "float32", "axis": [3], "momentum": 0.9, "epsilon": 0.001, "center": true, "scale": true, "beta_initializer": {"class_name": "Zeros", "config": {}}, "gamma_initializer": {"class_name": "Ones", "config": {}}, "moving_mean_initializer": {"class_name": "Zeros", "config": {}}, "moving_variance_initializer": {"class_name": "Ones", "config": {}}, "beta_regularizer": null, "gamma_regularizer": null, "beta_constraint": null, "gamma_constraint": null}, "name": "stack_1_block1_sortcut_bn", "inbound_nodes": [[["stack_1_block1_sortcut_conv", 0, 0, {}]]]}, {"class_name": "Activation", "config": {"name": "stack_1_block1_sortcut_swish", "trainable": true, "dtype": "float32", "activation": "swish"}, "name": "stack_1_block1_sortcut_swish", "inbound_nodes": [[["stack_1_block1_sortcut_bn", 0, 0, {}]]]}, {"class_name": "Conv2D", "config": {"name": "stack_1_block1_MB_pw_conv", "trainable": true, "dtype": "float32", "filters": 32, "kernel_size": [1, 1], "strides": [1, 1], "padding": "valid", "data_format": "channels_last", "dilation_rate": [1, 1], "groups": 1, "activation": "linear", "use_bias": false, "kernel_initializer": {"class_name": "VarianceScaling", "config": {"scale": 2.0, "mode": "fan_out", "distribution": "truncated_normal", "seed": null}, "shared_object_id": 1}, "bias_initializer": {"class_name": "Zeros", "config": {}}, "kernel_regularizer": null, "bias_regularizer": null, "activity_regularizer": null, "kernel_constraint": null, "bias_constraint": null}, "name": "stack_1_block1_MB_pw_conv", "inbound_nodes": [[["stack_1_block1_sortcut_swish", 0, 0, {}]]]}, {"class_name": "BatchNormalization", "config": {"name": "stack_1_block1_MB_pw_bn", "trainable": true, "dtype": "float32", "axis": [3], "momentum": 0.9, "epsilon": 0.001, "center": true, "scale": true, "beta_initializer": {"class_name": "Zeros", "config": {}}, "gamma_initializer": {"class_name": "Ones", "config": {}}, "moving_mean_initializer": {"class_name": "Zeros", "config": {}}, "moving_variance_initializer": {"class_name": "Ones", "config": {}}, "beta_regularizer": null, "gamma_regularizer": null, "beta_constraint": null, "gamma_constraint": null}, "name": "stack_1_block1_MB_pw_bn", "inbound_nodes": [[["stack_1_block1_MB_pw_conv", 0, 0, {}]]]}, {"class_name": "Add", "config": {"name": "add", "trainable": true, "dtype": "float32"}, "name": "add", "inbound_nodes": [[["stack_1_block0_MB_pw_bn", 0, 0, {}], ["stack_1_block1_MB_pw_bn", 0, 0, {}]]]}, {"class_name": "Conv2D", "config": {"name": "stack_2_block0_sortcut_conv", "trainable": true, "dtype": "float32", "filters": 128, "kernel_size": [3, 3], "strides": [2, 2], "padding": "same", "data_format": "channels_last", "dilation_rate": [1, 1], "groups": 1, "activation": "linear", "use_bias": false, "kernel_initializer": {"class_name": "VarianceScaling", "config": {"scale": 2.0, "mode": "fan_out", "distribution": "truncated_normal", "seed": null}, "shared_object_id": 1}, "bias_initializer": {"class_name": "Zeros", "config": {}}, "kernel_regularizer": null, "bias_regularizer": null, "activity_regularizer": null, "kernel_constraint": null, "bias_constraint": null}, "name": "stack_2_block0_sortcut_conv", "inbound_nodes": [[["add", 0, 0, {}]]]}, {"class_name": "BatchNormalization", "config": {"name": "stack_2_block0_sortcut_bn", "trainable": true, "dtype": "float32", "axis": [3], "momentum": 0.9, "epsilon": 0.001, "center": true, "scale": true, "beta_initializer": {"class_name": "Zeros", "config": {}}, "gamma_initializer": {"class_name": "Ones", "config": {}}, "moving_mean_initializer": {"class_name": "Zeros", "config": {}}, "moving_variance_initializer": {"class_name": "Ones", "config": {}}, "beta_regularizer": null, "gamma_regularizer": null, "beta_constraint": null, "gamma_constraint": null}, "name": "stack_2_block0_sortcut_bn", "inbound_nodes": [[["stack_2_block0_sortcut_conv", 0, 0, {}]]]}, {"class_name": "Activation", "config": {"name": "stack_2_block0_sortcut_swish", "trainable": true, "dtype": "float32", "activation": "swish"}, "name": "stack_2_block0_sortcut_swish", "inbound_nodes": [[["stack_2_block0_sortcut_bn", 0, 0, {}]]]}, {"class_name": "Conv2D", "config": {"name": "stack_2_block0_MB_pw_conv", "trainable": true, "dtype": "float32", "filters": 48, "kernel_size": [1, 1], "strides": [1, 1], "padding": "valid", "data_format": "channels_last", "dilation_rate": [1, 1], "groups": 1, "activation": "linear", "use_bias": false, "kernel_initializer": {"class_name": "VarianceScaling", "config": {"scale": 2.0, "mode": "fan_out", "distribution": "truncated_normal", "seed": null}, "shared_object_id": 1}, "bias_initializer": {"class_name": "Zeros", "config": {}}, "kernel_regularizer": null, "bias_regularizer": null, "activity_regularizer": null, "kernel_constraint": null, "bias_constraint": null}, "name": "stack_2_block0_MB_pw_conv", "inbound_nodes": [[["stack_2_block0_sortcut_swish", 0, 0, {}]]]}, {"class_name": "BatchNormalization", "config": {"name": "stack_2_block0_MB_pw_bn", "trainable": true, "dtype": "float32", "axis": [3], "momentum": 0.9, "epsilon": 0.001, "center": true, "scale": true, "beta_initializer": {"class_name": "Zeros", "config": {}}, "gamma_initializer": {"class_name": "Ones", "config": {}}, "moving_mean_initializer": {"class_name": "Zeros", "config": {}}, "moving_variance_initializer": {"class_name": "Ones", "config": {}}, "beta_regularizer": null, "gamma_regularizer": null, "beta_constraint": null, "gamma_constraint": null}, "name": "stack_2_block0_MB_pw_bn", "inbound_nodes": [[["stack_2_block0_MB_pw_conv", 0, 0, {}]]]}, {"class_name": "Conv2D", "config": {"name": "stack_2_block1_sortcut_conv", "trainable": true, "dtype": "float32", "filters": 192, "kernel_size": [3, 3], "strides": [1, 1], "padding": "same", "data_format": "channels_last", "dilation_rate": [1, 1], "groups": 1, "activation": "linear", "use_bias": false, "kernel_initializer": {"class_name": "VarianceScaling", "config": {"scale": 2.0, "mode": "fan_out", "distribution": "truncated_normal", "seed": null}, "shared_object_id": 1}, "bias_initializer": {"class_name": "Zeros", "config": {}}, "kernel_regularizer": null, "bias_regularizer": null, "activity_regularizer": null, "kernel_constraint": null, "bias_constraint": null}, "name": "stack_2_block1_sortcut_conv", "inbound_nodes": [[["stack_2_block0_MB_pw_bn", 0, 0, {}]]]}, {"class_name": "BatchNormalization", "config": {"name": "stack_2_block1_sortcut_bn", "trainable": true, "dtype": "float32", "axis": [3], "momentum": 0.9, "epsilon": 0.001, "center": true, "scale": true, "beta_initializer": {"class_name": "Zeros", "config": {}}, "gamma_initializer": {"class_name": "Ones", "config": {}}, "moving_mean_initializer": {"class_name": "Zeros", "config": {}}, "moving_variance_initializer": {"class_name": "Ones", "config": {}}, "beta_regularizer": null, "gamma_regularizer": null, "beta_constraint": null, "gamma_constraint": null}, "name": "stack_2_block1_sortcut_bn", "inbound_nodes": [[["stack_2_block1_sortcut_conv", 0, 0, {}]]]}, {"class_name": "Activation", "config": {"name": "stack_2_block1_sortcut_swish", "trainable": true, "dtype": "float32", "activation": "swish"}, "name": "stack_2_block1_sortcut_swish", "inbound_nodes": [[["stack_2_block1_sortcut_bn", 0, 0, {}]]]}, {"class_name": "Conv2D", "config": {"name": "stack_2_block1_MB_pw_conv", "trainable": true, "dtype": "float32", "filters": 48, "kernel_size": [1, 1], "strides": [1, 1], "padding": "valid", "data_format": "channels_last", "dilation_rate": [1, 1], "groups": 1, "activation": "linear", "use_bias": false, "kernel_initializer": {"class_name": "VarianceScaling", "config": {"scale": 2.0, "mode": "fan_out", "distribution": "truncated_normal", "seed": null}, "shared_object_id": 1}, "bias_initializer": {"class_name": "Zeros", "config": {}}, "kernel_regularizer": null, "bias_regularizer": null, "activity_regularizer": null, "kernel_constraint": null, "bias_constraint": null}, "name": "stack_2_block1_MB_pw_conv", "inbound_nodes": [[["stack_2_block1_sortcut_swish", 0, 0, {}]]]}, {"class_name": "BatchNormalization", "config": {"name": "stack_2_block1_MB_pw_bn", "trainable": true, "dtype": "float32", "axis": [3], "momentum": 0.9, "epsilon": 0.001, "center": true, "scale": true, "beta_initializer": {"class_name": "Zeros", "config": {}}, "gamma_initializer": {"class_name": "Ones", "config": {}}, "moving_mean_initializer": {"class_name": "Zeros", "config": {}}, "moving_variance_initializer": {"class_name": "Ones", "config": {}}, "beta_regularizer": null, "gamma_regularizer": null, "beta_constraint": null, "gamma_constraint": null}, "name": "stack_2_block1_MB_pw_bn", "inbound_nodes": [[["stack_2_block1_MB_pw_conv", 0, 0, {}]]]}, {"class_name": "Add", "config": {"name": "add_1", "trainable": true, "dtype": "float32"}, "name": "add_1", "inbound_nodes": [[["stack_2_block0_MB_pw_bn", 0, 0, {}], ["stack_2_block1_MB_pw_bn", 0, 0, {}]]]}, {"class_name": "Conv2D", "config": {"name": "stack_3_block0_sortcut_conv", "trainable": true, "dtype": "float32", "filters": 192, "kernel_size": [1, 1], "strides": [1, 1], "padding": "valid", "data_format": "channels_last", "dilation_rate": [1, 1], "groups": 1, "activation": "linear", "use_bias": false, "kernel_initializer": {"class_name": "VarianceScaling", "config": {"scale": 2.0, "mode": "fan_out", "distribution": "truncated_normal", "seed": null}, "shared_object_id": 1}, "bias_initializer": {"class_name": "Zeros", "config": {}}, "kernel_regularizer": null, "bias_regularizer": null, "activity_regularizer": null, "kernel_constraint": null, "bias_constraint": null}, "name": "stack_3_block0_sortcut_conv", "inbound_nodes": [[["add_1", 0, 0, {}]]]}, {"class_name": "BatchNormalization", "config": {"name": "stack_3_block0_sortcut_bn", "trainable": true, "dtype": "float32", "axis": [3], "momentum": 0.9, "epsilon": 0.001, "center": true, "scale": true, "beta_initializer": {"class_name": "Zeros", "config": {}}, "gamma_initializer": {"class_name": "Ones", "config": {}}, "moving_mean_initializer": {"class_name": "Zeros", "config": {}}, "moving_variance_initializer": {"class_name": "Ones", "config": {}}, "beta_regularizer": null, "gamma_regularizer": null, "beta_constraint": null, "gamma_constraint": null}, "name": "stack_3_block0_sortcut_bn", "inbound_nodes": [[["stack_3_block0_sortcut_conv", 0, 0, {}]]]}, {"class_name": "Activation", "config": {"name": "stack_3_block0_sortcut_swish", "trainable": true, "dtype": "float32", "activation": "swish"}, "name": "stack_3_block0_sortcut_swish", "inbound_nodes": [[["stack_3_block0_sortcut_bn", 0, 0, {}]]]}, {"class_name": "DepthwiseConv2D", "config": {"name": "stack_3_block0_MB_dw_", "trainable": true, "dtype": "float32", "kernel_size": [3, 3], "strides": [2, 2], "padding": "same", "data_format": "channels_last", "dilation_rate": [1, 1], "groups": 1, "activation": "linear", "use_bias": false, "bias_initializer": {"class_name": "Zeros", "config": {}}, "bias_regularizer": null, "activity_regularizer": null, "bias_constraint": null, "depth_multiplier": 1, "depthwise_initializer": {"class_name": "VarianceScaling", "config": {"scale": 2.0, "mode": "fan_out", "distribution": "truncated_normal", "seed": null}, "shared_object_id": 1}, "depthwise_regularizer": null, "depthwise_constraint": null}, "name": "stack_3_block0_MB_dw_", "inbound_nodes": [[["stack_3_block0_sortcut_swish", 0, 0, {}]]]}, {"class_name": "BatchNormalization", "config": {"name": "stack_3_block0_MB_dw_bn", "trainable": true, "dtype": "float32", "axis": [3], "momentum": 0.9, "epsilon": 0.001, "center": true, "scale": true, "beta_initializer": {"class_name": "Zeros", "config": {}}, "gamma_initializer": {"class_name": "Ones", "config": {}}, "moving_mean_initializer": {"class_name": "Zeros", "config": {}}, "moving_variance_initializer": {"class_name": "Ones", "config": {}}, "beta_regularizer": null, "gamma_regularizer": null, "beta_constraint": null, "gamma_constraint": null}, "name": "stack_3_block0_MB_dw_bn", "inbound_nodes": [[["stack_3_block0_MB_dw_", 0, 0, {}]]]}, {"class_name": "Activation", "config": {"name": "stack_3_block0_MB_dw_swish", "trainable": true, "dtype": "float32", "activation": "swish"}, "name": "stack_3_block0_MB_dw_swish", "inbound_nodes": [[["stack_3_block0_MB_dw_bn", 0, 0, {}]]]}, {"class_name": "TensorFlowOpLayer", "config": {"name": "Mean", "trainable": true, "dtype": "float32", "node_def": {"name": "Mean", "op": "Mean", "input": ["stack_3_block0_MB_dw_swish/IdentityN", "Mean/reduction_indices"], "attr": {"Tidx": {"type": "DT_INT32"}, "T": {"type": "DT_FLOAT"}, "keep_dims": {"b": true}}}, "constants": {"1": [1, 2]}}, "name": "tf_op_layer_Mean", "inbound_nodes": [[["stack_3_block0_MB_dw_swish", 0, 0, {}]]]}, {"class_name": "Conv2D", "config": {"name": "stack_3_block0_se_1_conv", "trainable": true, "dtype": "float32", "filters": 12, "kernel_size": [1, 1], "strides": [1, 1], "padding": "valid", "data_format": "channels_last", "dilation_rate": [1, 1], "groups": 1, "activation": "linear", "use_bias": true, "kernel_initializer": {"class_name": "VarianceScaling", "config": {"scale": 2.0, "mode": "fan_out", "distribution": "truncated_normal", "seed": null}, "shared_object_id": 1}, "bias_initializer": {"class_name": "Zeros", "config": {}}, "kernel_regularizer": null, "bias_regularizer": null, "activity_regularizer": null, "kernel_constraint": null, "bias_constraint": null}, "name": "stack_3_block0_se_1_conv", "inbound_nodes": [[["tf_op_layer_Mean", 0, 0, {}]]]}, {"class_name": "Activation", "config": {"name": "activation", "trainable": true, "dtype": "float32", "activation": "swish"}, "name": "activation", "inbound_nodes": [[["stack_3_block0_se_1_conv", 0, 0, {}]]]}, {"class_name": "Conv2D", "config": {"name": "stack_3_block0_se_2_conv", "trainable": true, "dtype": "float32", "filters": 192, "kernel_size": [1, 1], "strides": [1, 1], "padding": "valid", "data_format": "channels_last", "dilation_rate": [1, 1], "groups": 1, "activation": "linear", "use_bias": true, "kernel_initializer": {"class_name": "VarianceScaling", "config": {"scale": 2.0, "mode": "fan_out", "distribution": "truncated_normal", "seed": null}, "shared_object_id": 1}, "bias_initializer": {"class_name": "Zeros", "config": {}}, "kernel_regularizer": null, "bias_regularizer": null, "activity_regularizer": null, "kernel_constraint": null, "bias_constraint": null}, "name": "stack_3_block0_se_2_conv", "inbound_nodes": [[["activation", 0, 0, {}]]]}, {"class_name": "Activation", "config": {"name": "activation_1", "trainable": true, "dtype": "float32", "activation": "sigmoid"}, "name": "activation_1", "inbound_nodes": [[["stack_3_block0_se_2_conv", 0, 0, {}]]]}, {"class_name": "Multiply", "config": {"name": "multiply", "trainable": true, "dtype": "float32"}, "name": "multiply", "inbound_nodes": [[["stack_3_block0_MB_dw_swish", 0, 0, {}], ["activation_1", 0, 0, {}]]]}, {"class_name": "Conv2D", "config": {"name": "stack_3_block0_MB_pw_conv", "trainable": true, "dtype": "float32", "filters": 96, "kernel_size": [1, 1], "strides": [1, 1], "padding": "valid", "data_format": "channels_last", "dilation_rate": [1, 1], "groups": 1, "activation": "linear", "use_bias": false, "kernel_initializer": {"class_name": "VarianceScaling", "config": {"scale": 2.0, "mode": "fan_out", "distribution": "truncated_normal", "seed": null}, "shared_object_id": 1}, "bias_initializer": {"class_name": "Zeros", "config": {}}, "kernel_regularizer": null, "bias_regularizer": null, "activity_regularizer": null, "kernel_constraint": null, "bias_constraint": null}, "name": "stack_3_block0_MB_pw_conv", "inbound_nodes": [[["multiply", 0, 0, {}]]]}, {"class_name": "BatchNormalization", "config": {"name": "stack_3_block0_MB_pw_bn", "trainable": true, "dtype": "float32", "axis": [3], "momentum": 0.9, "epsilon": 0.001, "center": true, "scale": true, "beta_initializer": {"class_name": "Zeros", "config": {}}, "gamma_initializer": {"class_name": "Ones", "config": {}}, "moving_mean_initializer": {"class_name": "Zeros", "config": {}}, "moving_variance_initializer": {"class_name": "Ones", "config": {}}, "beta_regularizer": null, "gamma_regularizer": null, "beta_constraint": null, "gamma_constraint": null}, "name": "stack_3_block0_MB_pw_bn", "inbound_nodes": [[["stack_3_block0_MB_pw_conv", 0, 0, {}]]]}, {"class_name": "Conv2D", "config": {"name": "stack_3_block1_sortcut_conv", "trainable": true, "dtype": "float32", "filters": 384, "kernel_size": [1, 1], "strides": [1, 1], "padding": "valid", "data_format": "channels_last", "dilation_rate": [1, 1], "groups": 1, "activation": "linear", "use_bias": false, "kernel_initializer": {"class_name": "VarianceScaling", "config": {"scale": 2.0, "mode": "fan_out", "distribution": "truncated_normal", "seed": null}, "shared_object_id": 1}, "bias_initializer": {"class_name": "Zeros", "config": {}}, "kernel_regularizer": null, "bias_regularizer": null, "activity_regularizer": null, "kernel_constraint": null, "bias_constraint": null}, "name": "stack_3_block1_sortcut_conv", "inbound_nodes": [[["stack_3_block0_MB_pw_bn", 0, 0, {}]]]}, {"class_name": "BatchNormalization", "config": {"name": "stack_3_block1_sortcut_bn", "trainable": true, "dtype": "float32", "axis": [3], "momentum": 0.9, "epsilon": 0.001, "center": true, "scale": true, "beta_initializer": {"class_name": "Zeros", "config": {}}, "gamma_initializer": {"class_name": "Ones", "config": {}}, "moving_mean_initializer": {"class_name": "Zeros", "config": {}}, "moving_variance_initializer": {"class_name": "Ones", "config": {}}, "beta_regularizer": null, "gamma_regularizer": null, "beta_constraint": null, "gamma_constraint": null}, "name": "stack_3_block1_sortcut_bn", "inbound_nodes": [[["stack_3_block1_sortcut_conv", 0, 0, {}]]]}, {"class_name": "Activation", "config": {"name": "stack_3_block1_sortcut_swish", "trainable": true, "dtype": "float32", "activation": "swish"}, "name": "stack_3_block1_sortcut_swish", "inbound_nodes": [[["stack_3_block1_sortcut_bn", 0, 0, {}]]]}, {"class_name": "DepthwiseConv2D", "config": {"name": "stack_3_block1_MB_dw_", "trainable": true, "dtype": "float32", "kernel_size": [3, 3], "strides": [1, 1], "padding": "same", "data_format": "channels_last", "dilation_rate": [1, 1], "groups": 1, "activation": "linear", "use_bias": false, "bias_initializer": {"class_name": "Zeros", "config": {}}, "bias_regularizer": null, "activity_regularizer": null, "bias_constraint": null, "depth_multiplier": 1, "depthwise_initializer": {"class_name": "VarianceScaling", "config": {"scale": 2.0, "mode": "fan_out", "distribution": "truncated_normal", "seed": null}, "shared_object_id": 1}, "depthwise_regularizer": null, "depthwise_constraint": null}, "name": "stack_3_block1_MB_dw_", "inbound_nodes": [[["stack_3_block1_sortcut_swish", 0, 0, {}]]]}, {"class_name": "BatchNormalization", "config": {"name": "stack_3_block1_MB_dw_bn", "trainable": true, "dtype": "float32", "axis": [3], "momentum": 0.9, "epsilon": 0.001, "center": true, "scale": true, "beta_initializer": {"class_name": "Zeros", "config": {}}, "gamma_initializer": {"class_name": "Ones", "config": {}}, "moving_mean_initializer": {"class_name": "Zeros", "config": {}}, "moving_variance_initializer": {"class_name": "Ones", "config": {}}, "beta_regularizer": null, "gamma_regularizer": null, "beta_constraint": null, "gamma_constraint": null}, "name": "stack_3_block1_MB_dw_bn", "inbound_nodes": [[["stack_3_block1_MB_dw_", 0, 0, {}]]]}, {"class_name": "Activation", "config": {"name": "stack_3_block1_MB_dw_swish", "trainable": true, "dtype": "float32", "activation": "swish"}, "name": "stack_3_block1_MB_dw_swish", "inbound_nodes": [[["stack_3_block1_MB_dw_bn", 0, 0, {}]]]}, {"class_name": "TensorFlowOpLayer", "config": {"name": "Mean_1", "trainable": true, "dtype": "float32", "node_def": {"name": "Mean_1", "op": "Mean", "input": ["stack_3_block1_MB_dw_swish/IdentityN", "Mean_1/reduction_indices"], "attr": {"Tidx": {"type": "DT_INT32"}, "keep_dims": {"b": true}, "T": {"type": "DT_FLOAT"}}}, "constants": {"1": [1, 2]}}, "name": "tf_op_layer_Mean_1", "inbound_nodes": [[["stack_3_block1_MB_dw_swish", 0, 0, {}]]]}, {"class_name": "Conv2D", "config": {"name": "stack_3_block1_se_1_conv", "trainable": true, "dtype": "float32", "filters": 24, "kernel_size": [1, 1], "strides": [1, 1], "padding": "valid", "data_format": "channels_last", "dilation_rate": [1, 1], "groups": 1, "activation": "linear", "use_bias": true, "kernel_initializer": {"class_name": "VarianceScaling", "config": {"scale": 2.0, "mode": "fan_out", "distribution": "truncated_normal", "seed": null}, "shared_object_id": 1}, "bias_initializer": {"class_name": "Zeros", "config": {}}, "kernel_regularizer": null, "bias_regularizer": null, "activity_regularizer": null, "kernel_constraint": null, "bias_constraint": null}, "name": "stack_3_block1_se_1_conv", "inbound_nodes": [[["tf_op_layer_Mean_1", 0, 0, {}]]]}, {"class_name": "Activation", "config": {"name": "activation_2", "trainable": true, "dtype": "float32", "activation": "swish"}, "name": "activation_2", "inbound_nodes": [[["stack_3_block1_se_1_conv", 0, 0, {}]]]}, {"class_name": "Conv2D", "config": {"name": "stack_3_block1_se_2_conv", "trainable": true, "dtype": "float32", "filters": 384, "kernel_size": [1, 1], "strides": [1, 1], "padding": "valid", "data_format": "channels_last", "dilation_rate": [1, 1], "groups": 1, "activation": "linear", "use_bias": true, "kernel_initializer": {"class_name": "VarianceScaling", "config": {"scale": 2.0, "mode": "fan_out", "distribution": "truncated_normal", "seed": null}, "shared_object_id": 1}, "bias_initializer": {"class_name": "Zeros", "config": {}}, "kernel_regularizer": null, "bias_regularizer": null, "activity_regularizer": null, "kernel_constraint": null, "bias_constraint": null}, "name": "stack_3_block1_se_2_conv", "inbound_nodes": [[["activation_2", 0, 0, {}]]]}, {"class_name": "Activation", "config": {"name": "activation_3", "trainable": true, "dtype": "float32", "activation": "sigmoid"}, "name": "activation_3", "inbound_nodes": [[["stack_3_block1_se_2_conv", 0, 0, {}]]]}, {"class_name": "Multiply", "config": {"name": "multiply_1", "trainable": true, "dtype": "float32"}, "name": "multiply_1", "inbound_nodes": [[["stack_3_block1_MB_dw_swish", 0, 0, {}], ["activation_3", 0, 0, {}]]]}, {"class_name": "Conv2D", "config": {"name": "stack_3_block1_MB_pw_conv", "trainable": true, "dtype": "float32", "filters": 96, "kernel_size": [1, 1], "strides": [1, 1], "padding": "valid", "data_format": "channels_last", "dilation_rate": [1, 1], "groups": 1, "activation": "linear", "use_bias": false, "kernel_initializer": {"class_name": "VarianceScaling", "config": {"scale": 2.0, "mode": "fan_out", "distribution": "truncated_normal", "seed": null}, "shared_object_id": 1}, "bias_initializer": {"class_name": "Zeros", "config": {}}, "kernel_regularizer": null, "bias_regularizer": null, "activity_regularizer": null, "kernel_constraint": null, "bias_constraint": null}, "name": "stack_3_block1_MB_pw_conv", "inbound_nodes": [[["multiply_1", 0, 0, {}]]]}, {"class_name": "BatchNormalization", "config": {"name": "stack_3_block1_MB_pw_bn", "trainable": true, "dtype": "float32", "axis": [3], "momentum": 0.9, "epsilon": 0.001, "center": true, "scale": true, "beta_initializer": {"class_name": "Zeros", "config": {}}, "gamma_initializer": {"class_name": "Ones", "config": {}}, "moving_mean_initializer": {"class_name": "Zeros", "config": {}}, "moving_variance_initializer": {"class_name": "Ones", "config": {}}, "beta_regularizer": null, "gamma_regularizer": null, "beta_constraint": null, "gamma_constraint": null}, "name": "stack_3_block1_MB_pw_bn", "inbound_nodes": [[["stack_3_block1_MB_pw_conv", 0, 0, {}]]]}, {"class_name": "Add", "config": {"name": "add_2", "trainable": true, "dtype": "float32"}, "name": "add_2", "inbound_nodes": [[["stack_3_block0_MB_pw_bn", 0, 0, {}], ["stack_3_block1_MB_pw_bn", 0, 0, {}]]]}, {"class_name": "Conv2D", "config": {"name": "stack_3_block2_sortcut_conv", "trainable": true, "dtype": "float32", "filters": 384, "kernel_size": [1, 1], "strides": [1, 1], "padding": "valid", "data_format": "channels_last", "dilation_rate": [1, 1], "groups": 1, "activation": "linear", "use_bias": false, "kernel_initializer": {"class_name": "VarianceScaling", "config": {"scale": 2.0, "mode": "fan_out", "distribution": "truncated_normal", "seed": null}, "shared_object_id": 1}, "bias_initializer": {"class_name": "Zeros", "config": {}}, "kernel_regularizer": null, "bias_regularizer": null, "activity_regularizer": null, "kernel_constraint": null, "bias_constraint": null}, "name": "stack_3_block2_sortcut_conv", "inbound_nodes": [[["add_2", 0, 0, {}]]]}, {"class_name": "BatchNormalization", "config": {"name": "stack_3_block2_sortcut_bn", "trainable": true, "dtype": "float32", "axis": [3], "momentum": 0.9, "epsilon": 0.001, "center": true, "scale": true, "beta_initializer": {"class_name": "Zeros", "config": {}}, "gamma_initializer": {"class_name": "Ones", "config": {}}, "moving_mean_initializer": {"class_name": "Zeros", "config": {}}, "moving_variance_initializer": {"class_name": "Ones", "config": {}}, "beta_regularizer": null, "gamma_regularizer": null, "beta_constraint": null, "gamma_constraint": null}, "name": "stack_3_block2_sortcut_bn", "inbound_nodes": [[["stack_3_block2_sortcut_conv", 0, 0, {}]]]}, {"class_name": "Activation", "config": {"name": "stack_3_block2_sortcut_swish", "trainable": true, "dtype": "float32", "activation": "swish"}, "name": "stack_3_block2_sortcut_swish", "inbound_nodes": [[["stack_3_block2_sortcut_bn", 0, 0, {}]]]}, {"class_name": "DepthwiseConv2D", "config": {"name": "stack_3_block2_MB_dw_", "trainable": true, "dtype": "float32", "kernel_size": [3, 3], "strides": [1, 1], "padding": "same", "data_format": "channels_last", "dilation_rate": [1, 1], "groups": 1, "activation": "linear", "use_bias": false, "bias_initializer": {"class_name": "Zeros", "config": {}}, "bias_regularizer": null, "activity_regularizer": null, "bias_constraint": null, "depth_multiplier": 1, "depthwise_initializer": {"class_name": "VarianceScaling", "config": {"scale": 2.0, "mode": "fan_out", "distribution": "truncated_normal", "seed": null}, "shared_object_id": 1}, "depthwise_regularizer": null, "depthwise_constraint": null}, "name": "stack_3_block2_MB_dw_", "inbound_nodes": [[["stack_3_block2_sortcut_swish", 0, 0, {}]]]}, {"class_name": "BatchNormalization", "config": {"name": "stack_3_block2_MB_dw_bn", "trainable": true, "dtype": "float32", "axis": [3], "momentum": 0.9, "epsilon": 0.001, "center": true, "scale": true, "beta_initializer": {"class_name": "Zeros", "config": {}}, "gamma_initializer": {"class_name": "Ones", "config": {}}, "moving_mean_initializer": {"class_name": "Zeros", "config": {}}, "moving_variance_initializer": {"class_name": "Ones", "config": {}}, "beta_regularizer": null, "gamma_regularizer": null, "beta_constraint": null, "gamma_constraint": null}, "name": "stack_3_block2_MB_dw_bn", "inbound_nodes": [[["stack_3_block2_MB_dw_", 0, 0, {}]]]}, {"class_name": "Activation", "config": {"name": "stack_3_block2_MB_dw_swish", "trainable": true, "dtype": "float32", "activation": "swish"}, "name": "stack_3_block2_MB_dw_swish", "inbound_nodes": [[["stack_3_block2_MB_dw_bn", 0, 0, {}]]]}, {"class_name": "TensorFlowOpLayer", "config": {"name": "Mean_2", "trainable": true, "dtype": "float32", "node_def": {"name": "Mean_2", "op": "Mean", "input": ["stack_3_block2_MB_dw_swish/IdentityN", "Mean_2/reduction_indices"], "attr": {"keep_dims": {"b": true}, "T": {"type": "DT_FLOAT"}, "Tidx": {"type": "DT_INT32"}}}, "constants": {"1": [1, 2]}}, "name": "tf_op_layer_Mean_2", "inbound_nodes": [[["stack_3_block2_MB_dw_swish", 0, 0, {}]]]}, {"class_name": "Conv2D", "config": {"name": "stack_3_block2_se_1_conv", "trainable": true, "dtype": "float32", "filters": 24, "kernel_size": [1, 1], "strides": [1, 1], "padding": "valid", "data_format": "channels_last", "dilation_rate": [1, 1], "groups": 1, "activation": "linear", "use_bias": true, "kernel_initializer": {"class_name": "VarianceScaling", "config": {"scale": 2.0, "mode": "fan_out", "distribution": "truncated_normal", "seed": null}, "shared_object_id": 1}, "bias_initializer": {"class_name": "Zeros", "config": {}}, "kernel_regularizer": null, "bias_regularizer": null, "activity_regularizer": null, "kernel_constraint": null, "bias_constraint": null}, "name": "stack_3_block2_se_1_conv", "inbound_nodes": [[["tf_op_layer_Mean_2", 0, 0, {}]]]}, {"class_name": "Activation", "config": {"name": "activation_4", "trainable": true, "dtype": "float32", "activation": "swish"}, "name": "activation_4", "inbound_nodes": [[["stack_3_block2_se_1_conv", 0, 0, {}]]]}, {"class_name": "Conv2D", "config": {"name": "stack_3_block2_se_2_conv", "trainable": true, "dtype": "float32", "filters": 384, "kernel_size": [1, 1], "strides": [1, 1], "padding": "valid", "data_format": "channels_last", "dilation_rate": [1, 1], "groups": 1, "activation": "linear", "use_bias": true, "kernel_initializer": {"class_name": "VarianceScaling", "config": {"scale": 2.0, "mode": "fan_out", "distribution": "truncated_normal", "seed": null}, "shared_object_id": 1}, "bias_initializer": {"class_name": "Zeros", "config": {}}, "kernel_regularizer": null, "bias_regularizer": null, "activity_regularizer": null, "kernel_constraint": null, "bias_constraint": null}, "name": "stack_3_block2_se_2_conv", "inbound_nodes": [[["activation_4", 0, 0, {}]]]}, {"class_name": "Activation", "config": {"name": "activation_5", "trainable": true, "dtype": "float32", "activation": "sigmoid"}, "name": "activation_5", "inbound_nodes": [[["stack_3_block2_se_2_conv", 0, 0, {}]]]}, {"class_name": "Multiply", "config": {"name": "multiply_2", "trainable": true, "dtype": "float32"}, "name": "multiply_2", "inbound_nodes": [[["stack_3_block2_MB_dw_swish", 0, 0, {}], ["activation_5", 0, 0, {}]]]}, {"class_name": "Conv2D", "config": {"name": "stack_3_block2_MB_pw_conv", "trainable": true, "dtype": "float32", "filters": 96, "kernel_size": [1, 1], "strides": [1, 1], "padding": "valid", "data_format": "channels_last", "dilation_rate": [1, 1], "groups": 1, "activation": "linear", "use_bias": false, "kernel_initializer": {"class_name": "VarianceScaling", "config": {"scale": 2.0, "mode": "fan_out", "distribution": "truncated_normal", "seed": null}, "shared_object_id": 1}, "bias_initializer": {"class_name": "Zeros", "config": {}}, "kernel_regularizer": null, "bias_regularizer": null, "activity_regularizer": null, "kernel_constraint": null, "bias_constraint": null}, "name": "stack_3_block2_MB_pw_conv", "inbound_nodes": [[["multiply_2", 0, 0, {}]]]}, {"class_name": "BatchNormalization", "config": {"name": "stack_3_block2_MB_pw_bn", "trainable": true, "dtype": "float32", "axis": [3], "momentum": 0.9, "epsilon": 0.001, "center": true, "scale": true, "beta_initializer": {"class_name": "Zeros", "config": {}}, "gamma_initializer": {"class_name": "Ones", "config": {}}, "moving_mean_initializer": {"class_name": "Zeros", "config": {}}, "moving_variance_initializer": {"class_name": "Ones", "config": {}}, "beta_regularizer": null, "gamma_regularizer": null, "beta_constraint": null, "gamma_constraint": null}, "name": "stack_3_block2_MB_pw_bn", "inbound_nodes": [[["stack_3_block2_MB_pw_conv", 0, 0, {}]]]}, {"class_name": "Add", "config": {"name": "add_3", "trainable": true, "dtype": "float32"}, "name": "add_3", "inbound_nodes": [[["add_2", 0, 0, {}], ["stack_3_block2_MB_pw_bn", 0, 0, {}]]]}, {"class_name": "Conv2D", "config": {"name": "stack_4_block0_sortcut_conv", "trainable": true, "dtype": "float32", "filters": 576, "kernel_size": [1, 1], "strides": [1, 1], "padding": "valid", "data_format": "channels_last", "dilation_rate": [1, 1], "groups": 1, "activation": "linear", "use_bias": false, "kernel_initializer": {"class_name": "VarianceScaling", "config": {"scale": 2.0, "mode": "fan_out", "distribution": "truncated_normal", "seed": null}, "shared_object_id": 1}, "bias_initializer": {"class_name": "Zeros", "config": {}}, "kernel_regularizer": null, "bias_regularizer": null, "activity_regularizer": null, "kernel_constraint": null, "bias_constraint": null}, "name": "stack_4_block0_sortcut_conv", "inbound_nodes": [[["add_3", 0, 0, {}]]]}, {"class_name": "BatchNormalization", "config": {"name": "stack_4_block0_sortcut_bn", "trainable": true, "dtype": "float32", "axis": [3], "momentum": 0.9, "epsilon": 0.001, "center": true, "scale": true, "beta_initializer": {"class_name": "Zeros", "config": {}}, "gamma_initializer": {"class_name": "Ones", "config": {}}, "moving_mean_initializer": {"class_name": "Zeros", "config": {}}, "moving_variance_initializer": {"class_name": "Ones", "config": {}}, "beta_regularizer": null, "gamma_regularizer": null, "beta_constraint": null, "gamma_constraint": null}, "name": "stack_4_block0_sortcut_bn", "inbound_nodes": [[["stack_4_block0_sortcut_conv", 0, 0, {}]]]}, {"class_name": "Activation", "config": {"name": "stack_4_block0_sortcut_swish", "trainable": true, "dtype": "float32", "activation": "swish"}, "name": "stack_4_block0_sortcut_swish", "inbound_nodes": [[["stack_4_block0_sortcut_bn", 0, 0, {}]]]}, {"class_name": "DepthwiseConv2D", "config": {"name": "stack_4_block0_MB_dw_", "trainable": true, "dtype": "float32", "kernel_size": [3, 3], "strides": [1, 1], "padding": "same", "data_format": "channels_last", "dilation_rate": [1, 1], "groups": 1, "activation": "linear", "use_bias": false, "bias_initializer": {"class_name": "Zeros", "config": {}}, "bias_regularizer": null, "activity_regularizer": null, "bias_constraint": null, "depth_multiplier": 1, "depthwise_initializer": {"class_name": "VarianceScaling", "config": {"scale": 2.0, "mode": "fan_out", "distribution": "truncated_normal", "seed": null}, "shared_object_id": 1}, "depthwise_regularizer": null, "depthwise_constraint": null}, "name": "stack_4_block0_MB_dw_", "inbound_nodes": [[["stack_4_block0_sortcut_swish", 0, 0, {}]]]}, {"class_name": "BatchNormalization", "config": {"name": "stack_4_block0_MB_dw_bn", "trainable": true, "dtype": "float32", "axis": [3], "momentum": 0.9, "epsilon": 0.001, "center": true, "scale": true, "beta_initializer": {"class_name": "Zeros", "config": {}}, "gamma_initializer": {"class_name": "Ones", "config": {}}, "moving_mean_initializer": {"class_name": "Zeros", "config": {}}, "moving_variance_initializer": {"class_name": "Ones", "config": {}}, "beta_regularizer": null, "gamma_regularizer": null, "beta_constraint": null, "gamma_constraint": null}, "name": "stack_4_block0_MB_dw_bn", "inbound_nodes": [[["stack_4_block0_MB_dw_", 0, 0, {}]]]}, {"class_name": "Activation", "config": {"name": "stack_4_block0_MB_dw_swish", "trainable": true, "dtype": "float32", "activation": "swish"}, "name": "stack_4_block0_MB_dw_swish", "inbound_nodes": [[["stack_4_block0_MB_dw_bn", 0, 0, {}]]]}, {"class_name": "TensorFlowOpLayer", "config": {"name": "Mean_3", "trainable": true, "dtype": "float32", "node_def": {"name": "Mean_3", "op": "Mean", "input": ["stack_4_block0_MB_dw_swish/IdentityN", "Mean_3/reduction_indices"], "attr": {"T": {"type": "DT_FLOAT"}, "keep_dims": {"b": true}, "Tidx": {"type": "DT_INT32"}}}, "constants": {"1": [1, 2]}}, "name": "tf_op_layer_Mean_3", "inbound_nodes": [[["stack_4_block0_MB_dw_swish", 0, 0, {}]]]}, {"class_name": "Conv2D", "config": {"name": "stack_4_block0_se_1_conv", "trainable": true, "dtype": "float32", "filters": 24, "kernel_size": [1, 1], "strides": [1, 1], "padding": "valid", "data_format": "channels_last", "dilation_rate": [1, 1], "groups": 1, "activation": "linear", "use_bias": true, "kernel_initializer": {"class_name": "VarianceScaling", "config": {"scale": 2.0, "mode": "fan_out", "distribution": "truncated_normal", "seed": null}, "shared_object_id": 1}, "bias_initializer": {"class_name": "Zeros", "config": {}}, "kernel_regularizer": null, "bias_regularizer": null, "activity_regularizer": null, "kernel_constraint": null, "bias_constraint": null}, "name": "stack_4_block0_se_1_conv", "inbound_nodes": [[["tf_op_layer_Mean_3", 0, 0, {}]]]}, {"class_name": "Activation", "config": {"name": "activation_6", "trainable": true, "dtype": "float32", "activation": "swish"}, "name": "activation_6", "inbound_nodes": [[["stack_4_block0_se_1_conv", 0, 0, {}]]]}, {"class_name": "Conv2D", "config": {"name": "stack_4_block0_se_2_conv", "trainable": true, "dtype": "float32", "filters": 576, "kernel_size": [1, 1], "strides": [1, 1], "padding": "valid", "data_format": "channels_last", "dilation_rate": [1, 1], "groups": 1, "activation": "linear", "use_bias": true, "kernel_initializer": {"class_name": "VarianceScaling", "config": {"scale": 2.0, "mode": "fan_out", "distribution": "truncated_normal", "seed": null}, "shared_object_id": 1}, "bias_initializer": {"class_name": "Zeros", "config": {}}, "kernel_regularizer": null, "bias_regularizer": null, "activity_regularizer": null, "kernel_constraint": null, "bias_constraint": null}, "name": "stack_4_block0_se_2_conv", "inbound_nodes": [[["activation_6", 0, 0, {}]]]}, {"class_name": "Activation", "config": {"name": "activation_7", "trainable": true, "dtype": "float32", "activation": "sigmoid"}, "name": "activation_7", "inbound_nodes": [[["stack_4_block0_se_2_conv", 0, 0, {}]]]}, {"class_name": "Multiply", "config": {"name": "multiply_3", "trainable": true, "dtype": "float32"}, "name": "multiply_3", "inbound_nodes": [[["stack_4_block0_MB_dw_swish", 0, 0, {}], ["activation_7", 0, 0, {}]]]}, {"class_name": "Conv2D", "config": {"name": "stack_4_block0_MB_pw_conv", "trainable": true, "dtype": "float32", "filters": 112, "kernel_size": [1, 1], "strides": [1, 1], "padding": "valid", "data_format": "channels_last", "dilation_rate": [1, 1], "groups": 1, "activation": "linear", "use_bias": false, "kernel_initializer": {"class_name": "VarianceScaling", "config": {"scale": 2.0, "mode": "fan_out", "distribution": "truncated_normal", "seed": null}, "shared_object_id": 1}, "bias_initializer": {"class_name": "Zeros", "config": {}}, "kernel_regularizer": null, "bias_regularizer": null, "activity_regularizer": null, "kernel_constraint": null, "bias_constraint": null}, "name": "stack_4_block0_MB_pw_conv", "inbound_nodes": [[["multiply_3", 0, 0, {}]]]}, {"class_name": "BatchNormalization", "config": {"name": "stack_4_block0_MB_pw_bn", "trainable": true, "dtype": "float32", "axis": [3], "momentum": 0.9, "epsilon": 0.001, "center": true, "scale": true, "beta_initializer": {"class_name": "Zeros", "config": {}}, "gamma_initializer": {"class_name": "Ones", "config": {}}, "moving_mean_initializer": {"class_name": "Zeros", "config": {}}, "moving_variance_initializer": {"class_name": "Ones", "config": {}}, "beta_regularizer": null, "gamma_regularizer": null, "beta_constraint": null, "gamma_constraint": null}, "name": "stack_4_block0_MB_pw_bn", "inbound_nodes": [[["stack_4_block0_MB_pw_conv", 0, 0, {}]]]}, {"class_name": "Conv2D", "config": {"name": "stack_4_block1_sortcut_conv", "trainable": true, "dtype": "float32", "filters": 672, "kernel_size": [1, 1], "strides": [1, 1], "padding": "valid", "data_format": "channels_last", "dilation_rate": [1, 1], "groups": 1, "activation": "linear", "use_bias": false, "kernel_initializer": {"class_name": "VarianceScaling", "config": {"scale": 2.0, "mode": "fan_out", "distribution": "truncated_normal", "seed": null}, "shared_object_id": 1}, "bias_initializer": {"class_name": "Zeros", "config": {}}, "kernel_regularizer": null, "bias_regularizer": null, "activity_regularizer": null, "kernel_constraint": null, "bias_constraint": null}, "name": "stack_4_block1_sortcut_conv", "inbound_nodes": [[["stack_4_block0_MB_pw_bn", 0, 0, {}]]]}, {"class_name": "BatchNormalization", "config": {"name": "stack_4_block1_sortcut_bn", "trainable": true, "dtype": "float32", "axis": [3], "momentum": 0.9, "epsilon": 0.001, "center": true, "scale": true, "beta_initializer": {"class_name": "Zeros", "config": {}}, "gamma_initializer": {"class_name": "Ones", "config": {}}, "moving_mean_initializer": {"class_name": "Zeros", "config": {}}, "moving_variance_initializer": {"class_name": "Ones", "config": {}}, "beta_regularizer": null, "gamma_regularizer": null, "beta_constraint": null, "gamma_constraint": null}, "name": "stack_4_block1_sortcut_bn", "inbound_nodes": [[["stack_4_block1_sortcut_conv", 0, 0, {}]]]}, {"class_name": "Activation", "config": {"name": "stack_4_block1_sortcut_swish", "trainable": true, "dtype": "float32", "activation": "swish"}, "name": "stack_4_block1_sortcut_swish", "inbound_nodes": [[["stack_4_block1_sortcut_bn", 0, 0, {}]]]}, {"class_name": "DepthwiseConv2D", "config": {"name": "stack_4_block1_MB_dw_", "trainable": true, "dtype": "float32", "kernel_size": [3, 3], "strides": [1, 1], "padding": "same", "data_format": "channels_last", "dilation_rate": [1, 1], "groups": 1, "activation": "linear", "use_bias": false, "bias_initializer": {"class_name": "Zeros", "config": {}}, "bias_regularizer": null, "activity_regularizer": null, "bias_constraint": null, "depth_multiplier": 1, "depthwise_initializer": {"class_name": "VarianceScaling", "config": {"scale": 2.0, "mode": "fan_out", "distribution": "truncated_normal", "seed": null}, "shared_object_id": 1}, "depthwise_regularizer": null, "depthwise_constraint": null}, "name": "stack_4_block1_MB_dw_", "inbound_nodes": [[["stack_4_block1_sortcut_swish", 0, 0, {}]]]}, {"class_name": "BatchNormalization", "config": {"name": "stack_4_block1_MB_dw_bn", "trainable": true, "dtype": "float32", "axis": [3], "momentum": 0.9, "epsilon": 0.001, "center": true, "scale": true, "beta_initializer": {"class_name": "Zeros", "config": {}}, "gamma_initializer": {"class_name": "Ones", "config": {}}, "moving_mean_initializer": {"class_name": "Zeros", "config": {}}, "moving_variance_initializer": {"class_name": "Ones", "config": {}}, "beta_regularizer": null, "gamma_regularizer": null, "beta_constraint": null, "gamma_constraint": null}, "name": "stack_4_block1_MB_dw_bn", "inbound_nodes": [[["stack_4_block1_MB_dw_", 0, 0, {}]]]}, {"class_name": "Activation", "config": {"name": "stack_4_block1_MB_dw_swish", "trainable": true, "dtype": "float32", "activation": "swish"}, "name": "stack_4_block1_MB_dw_swish", "inbound_nodes": [[["stack_4_block1_MB_dw_bn", 0, 0, {}]]]}, {"class_name": "TensorFlowOpLayer", "config": {"name": "Mean_4", "trainable": true, "dtype": "float32", "node_def": {"name": "Mean_4", "op": "Mean", "input": ["stack_4_block1_MB_dw_swish/IdentityN", "Mean_4/reduction_indices"], "attr": {"T": {"type": "DT_FLOAT"}, "Tidx": {"type": "DT_INT32"}, "keep_dims": {"b": true}}}, "constants": {"1": [1, 2]}}, "name": "tf_op_layer_Mean_4", "inbound_nodes": [[["stack_4_block1_MB_dw_swish", 0, 0, {}]]]}, {"class_name": "Conv2D", "config": {"name": "stack_4_block1_se_1_conv", "trainable": true, "dtype": "float32", "filters": 28, "kernel_size": [1, 1], "strides": [1, 1], "padding": "valid", "data_format": "channels_last", "dilation_rate": [1, 1], "groups": 1, "activation": "linear", "use_bias": true, "kernel_initializer": {"class_name": "VarianceScaling", "config": {"scale": 2.0, "mode": "fan_out", "distribution": "truncated_normal", "seed": null}, "shared_object_id": 1}, "bias_initializer": {"class_name": "Zeros", "config": {}}, "kernel_regularizer": null, "bias_regularizer": null, "activity_regularizer": null, "kernel_constraint": null, "bias_constraint": null}, "name": "stack_4_block1_se_1_conv", "inbound_nodes": [[["tf_op_layer_Mean_4", 0, 0, {}]]]}, {"class_name": "Activation", "config": {"name": "activation_8", "trainable": true, "dtype": "float32", "activation": "swish"}, "name": "activation_8", "inbound_nodes": [[["stack_4_block1_se_1_conv", 0, 0, {}]]]}, {"class_name": "Conv2D", "config": {"name": "stack_4_block1_se_2_conv", "trainable": true, "dtype": "float32", "filters": 672, "kernel_size": [1, 1], "strides": [1, 1], "padding": "valid", "data_format": "channels_last", "dilation_rate": [1, 1], "groups": 1, "activation": "linear", "use_bias": true, "kernel_initializer": {"class_name": "VarianceScaling", "config": {"scale": 2.0, "mode": "fan_out", "distribution": "truncated_normal", "seed": null}, "shared_object_id": 1}, "bias_initializer": {"class_name": "Zeros", "config": {}}, "kernel_regularizer": null, "bias_regularizer": null, "activity_regularizer": null, "kernel_constraint": null, "bias_constraint": null}, "name": "stack_4_block1_se_2_conv", "inbound_nodes": [[["activation_8", 0, 0, {}]]]}, {"class_name": "Activation", "config": {"name": "activation_9", "trainable": true, "dtype": "float32", "activation": "sigmoid"}, "name": "activation_9", "inbound_nodes": [[["stack_4_block1_se_2_conv", 0, 0, {}]]]}, {"class_name": "Multiply", "config": {"name": "multiply_4", "trainable": true, "dtype": "float32"}, "name": "multiply_4", "inbound_nodes": [[["stack_4_block1_MB_dw_swish", 0, 0, {}], ["activation_9", 0, 0, {}]]]}, {"class_name": "Conv2D", "config": {"name": "stack_4_block1_MB_pw_conv", "trainable": true, "dtype": "float32", "filters": 112, "kernel_size": [1, 1], "strides": [1, 1], "padding": "valid", "data_format": "channels_last", "dilation_rate": [1, 1], "groups": 1, "activation": "linear", "use_bias": false, "kernel_initializer": {"class_name": "VarianceScaling", "config": {"scale": 2.0, "mode": "fan_out", "distribution": "truncated_normal", "seed": null}, "shared_object_id": 1}, "bias_initializer": {"class_name": "Zeros", "config": {}}, "kernel_regularizer": null, "bias_regularizer": null, "activity_regularizer": null, "kernel_constraint": null, "bias_constraint": null}, "name": "stack_4_block1_MB_pw_conv", "inbound_nodes": [[["multiply_4", 0, 0, {}]]]}, {"class_name": "BatchNormalization", "config": {"name": "stack_4_block1_MB_pw_bn", "trainable": true, "dtype": "float32", "axis": [3], "momentum": 0.9, "epsilon": 0.001, "center": true, "scale": true, "beta_initializer": {"class_name": "Zeros", "config": {}}, "gamma_initializer": {"class_name": "Ones", "config": {}}, "moving_mean_initializer": {"class_name": "Zeros", "config": {}}, "moving_variance_initializer": {"class_name": "Ones", "config": {}}, "beta_regularizer": null, "gamma_regularizer": null, "beta_constraint": null, "gamma_constraint": null}, "name": "stack_4_block1_MB_pw_bn", "inbound_nodes": [[["stack_4_block1_MB_pw_conv", 0, 0, {}]]]}, {"class_name": "Add", "config": {"name": "add_4", "trainable": true, "dtype": "float32"}, "name": "add_4", "inbound_nodes": [[["stack_4_block0_MB_pw_bn", 0, 0, {}], ["stack_4_block1_MB_pw_bn", 0, 0, {}]]]}, {"class_name": "Conv2D", "config": {"name": "stack_4_block2_sortcut_conv", "trainable": true, "dtype": "float32", "filters": 672, "kernel_size": [1, 1], "strides": [1, 1], "padding": "valid", "data_format": "channels_last", "dilation_rate": [1, 1], "groups": 1, "activation": "linear", "use_bias": false, "kernel_initializer": {"class_name": "VarianceScaling", "config": {"scale": 2.0, "mode": "fan_out", "distribution": "truncated_normal", "seed": null}, "shared_object_id": 1}, "bias_initializer": {"class_name": "Zeros", "config": {}}, "kernel_regularizer": null, "bias_regularizer": null, "activity_regularizer": null, "kernel_constraint": null, "bias_constraint": null}, "name": "stack_4_block2_sortcut_conv", "inbound_nodes": [[["add_4", 0, 0, {}]]]}, {"class_name": "BatchNormalization", "config": {"name": "stack_4_block2_sortcut_bn", "trainable": true, "dtype": "float32", "axis": [3], "momentum": 0.9, "epsilon": 0.001, "center": true, "scale": true, "beta_initializer": {"class_name": "Zeros", "config": {}}, "gamma_initializer": {"class_name": "Ones", "config": {}}, "moving_mean_initializer": {"class_name": "Zeros", "config": {}}, "moving_variance_initializer": {"class_name": "Ones", "config": {}}, "beta_regularizer": null, "gamma_regularizer": null, "beta_constraint": null, "gamma_constraint": null}, "name": "stack_4_block2_sortcut_bn", "inbound_nodes": [[["stack_4_block2_sortcut_conv", 0, 0, {}]]]}, {"class_name": "Activation", "config": {"name": "stack_4_block2_sortcut_swish", "trainable": true, "dtype": "float32", "activation": "swish"}, "name": "stack_4_block2_sortcut_swish", "inbound_nodes": [[["stack_4_block2_sortcut_bn", 0, 0, {}]]]}, {"class_name": "DepthwiseConv2D", "config": {"name": "stack_4_block2_MB_dw_", "trainable": true, "dtype": "float32", "kernel_size": [3, 3], "strides": [1, 1], "padding": "same", "data_format": "channels_last", "dilation_rate": [1, 1], "groups": 1, "activation": "linear", "use_bias": false, "bias_initializer": {"class_name": "Zeros", "config": {}}, "bias_regularizer": null, "activity_regularizer": null, "bias_constraint": null, "depth_multiplier": 1, "depthwise_initializer": {"class_name": "VarianceScaling", "config": {"scale": 2.0, "mode": "fan_out", "distribution": "truncated_normal", "seed": null}, "shared_object_id": 1}, "depthwise_regularizer": null, "depthwise_constraint": null}, "name": "stack_4_block2_MB_dw_", "inbound_nodes": [[["stack_4_block2_sortcut_swish", 0, 0, {}]]]}, {"class_name": "BatchNormalization", "config": {"name": "stack_4_block2_MB_dw_bn", "trainable": true, "dtype": "float32", "axis": [3], "momentum": 0.9, "epsilon": 0.001, "center": true, "scale": true, "beta_initializer": {"class_name": "Zeros", "config": {}}, "gamma_initializer": {"class_name": "Ones", "config": {}}, "moving_mean_initializer": {"class_name": "Zeros", "config": {}}, "moving_variance_initializer": {"class_name": "Ones", "config": {}}, "beta_regularizer": null, "gamma_regularizer": null, "beta_constraint": null, "gamma_constraint": null}, "name": "stack_4_block2_MB_dw_bn", "inbound_nodes": [[["stack_4_block2_MB_dw_", 0, 0, {}]]]}, {"class_name": "Activation", "config": {"name": "stack_4_block2_MB_dw_swish", "trainable": true, "dtype": "float32", "activation": "swish"}, "name": "stack_4_block2_MB_dw_swish", "inbound_nodes": [[["stack_4_block2_MB_dw_bn", 0, 0, {}]]]}, {"class_name": "TensorFlowOpLayer", "config": {"name": "Mean_5", "trainable": true, "dtype": "float32", "node_def": {"name": "Mean_5", "op": "Mean", "input": ["stack_4_block2_MB_dw_swish/IdentityN", "Mean_5/reduction_indices"], "attr": {"keep_dims": {"b": true}, "T": {"type": "DT_FLOAT"}, "Tidx": {"type": "DT_INT32"}}}, "constants": {"1": [1, 2]}}, "name": "tf_op_layer_Mean_5", "inbound_nodes": [[["stack_4_block2_MB_dw_swish", 0, 0, {}]]]}, {"class_name": "Conv2D", "config": {"name": "stack_4_block2_se_1_conv", "trainable": true, "dtype": "float32", "filters": 28, "kernel_size": [1, 1], "strides": [1, 1], "padding": "valid", "data_format": "channels_last", "dilation_rate": [1, 1], "groups": 1, "activation": "linear", "use_bias": true, "kernel_initializer": {"class_name": "VarianceScaling", "config": {"scale": 2.0, "mode": "fan_out", "distribution": "truncated_normal", "seed": null}, "shared_object_id": 1}, "bias_initializer": {"class_name": "Zeros", "config": {}}, "kernel_regularizer": null, "bias_regularizer": null, "activity_regularizer": null, "kernel_constraint": null, "bias_constraint": null}, "name": "stack_4_block2_se_1_conv", "inbound_nodes": [[["tf_op_layer_Mean_5", 0, 0, {}]]]}, {"class_name": "Activation", "config": {"name": "activation_10", "trainable": true, "dtype": "float32", "activation": "swish"}, "name": "activation_10", "inbound_nodes": [[["stack_4_block2_se_1_conv", 0, 0, {}]]]}, {"class_name": "Conv2D", "config": {"name": "stack_4_block2_se_2_conv", "trainable": true, "dtype": "float32", "filters": 672, "kernel_size": [1, 1], "strides": [1, 1], "padding": "valid", "data_format": "channels_last", "dilation_rate": [1, 1], "groups": 1, "activation": "linear", "use_bias": true, "kernel_initializer": {"class_name": "VarianceScaling", "config": {"scale": 2.0, "mode": "fan_out", "distribution": "truncated_normal", "seed": null}, "shared_object_id": 1}, "bias_initializer": {"class_name": "Zeros", "config": {}}, "kernel_regularizer": null, "bias_regularizer": null, "activity_regularizer": null, "kernel_constraint": null, "bias_constraint": null}, "name": "stack_4_block2_se_2_conv", "inbound_nodes": [[["activation_10", 0, 0, {}]]]}, {"class_name": "Activation", "config": {"name": "activation_11", "trainable": true, "dtype": "float32", "activation": "sigmoid"}, "name": "activation_11", "inbound_nodes": [[["stack_4_block2_se_2_conv", 0, 0, {}]]]}, {"class_name": "Multiply", "config": {"name": "multiply_5", "trainable": true, "dtype": "float32"}, "name": "multiply_5", "inbound_nodes": [[["stack_4_block2_MB_dw_swish", 0, 0, {}], ["activation_11", 0, 0, {}]]]}, {"class_name": "Conv2D", "config": {"name": "stack_4_block2_MB_pw_conv", "trainable": true, "dtype": "float32", "filters": 112, "kernel_size": [1, 1], "strides": [1, 1], "padding": "valid", "data_format": "channels_last", "dilation_rate": [1, 1], "groups": 1, "activation": "linear", "use_bias": false, "kernel_initializer": {"class_name": "VarianceScaling", "config": {"scale": 2.0, "mode": "fan_out", "distribution": "truncated_normal", "seed": null}, "shared_object_id": 1}, "bias_initializer": {"class_name": "Zeros", "config": {}}, "kernel_regularizer": null, "bias_regularizer": null, "activity_regularizer": null, "kernel_constraint": null, "bias_constraint": null}, "name": "stack_4_block2_MB_pw_conv", "inbound_nodes": [[["multiply_5", 0, 0, {}]]]}, {"class_name": "BatchNormalization", "config": {"name": "stack_4_block2_MB_pw_bn", "trainable": true, "dtype": "float32", "axis": [3], "momentum": 0.9, "epsilon": 0.001, "center": true, "scale": true, "beta_initializer": {"class_name": "Zeros", "config": {}}, "gamma_initializer": {"class_name": "Ones", "config": {}}, "moving_mean_initializer": {"class_name": "Zeros", "config": {}}, "moving_variance_initializer": {"class_name": "Ones", "config": {}}, "beta_regularizer": null, "gamma_regularizer": null, "beta_constraint": null, "gamma_constraint": null}, "name": "stack_4_block2_MB_pw_bn", "inbound_nodes": [[["stack_4_block2_MB_pw_conv", 0, 0, {}]]]}, {"class_name": "Add", "config": {"name": "add_5", "trainable": true, "dtype": "float32"}, "name": "add_5", "inbound_nodes": [[["add_4", 0, 0, {}], ["stack_4_block2_MB_pw_bn", 0, 0, {}]]]}, {"class_name": "Conv2D", "config": {"name": "stack_4_block3_sortcut_conv", "trainable": true, "dtype": "float32", "filters": 672, "kernel_size": [1, 1], "strides": [1, 1], "padding": "valid", "data_format": "channels_last", "dilation_rate": [1, 1], "groups": 1, "activation": "linear", "use_bias": false, "kernel_initializer": {"class_name": "VarianceScaling", "config": {"scale": 2.0, "mode": "fan_out", "distribution": "truncated_normal", "seed": null}, "shared_object_id": 1}, "bias_initializer": {"class_name": "Zeros", "config": {}}, "kernel_regularizer": null, "bias_regularizer": null, "activity_regularizer": null, "kernel_constraint": null, "bias_constraint": null}, "name": "stack_4_block3_sortcut_conv", "inbound_nodes": [[["add_5", 0, 0, {}]]]}, {"class_name": "BatchNormalization", "config": {"name": "stack_4_block3_sortcut_bn", "trainable": true, "dtype": "float32", "axis": [3], "momentum": 0.9, "epsilon": 0.001, "center": true, "scale": true, "beta_initializer": {"class_name": "Zeros", "config": {}}, "gamma_initializer": {"class_name": "Ones", "config": {}}, "moving_mean_initializer": {"class_name": "Zeros", "config": {}}, "moving_variance_initializer": {"class_name": "Ones", "config": {}}, "beta_regularizer": null, "gamma_regularizer": null, "beta_constraint": null, "gamma_constraint": null}, "name": "stack_4_block3_sortcut_bn", "inbound_nodes": [[["stack_4_block3_sortcut_conv", 0, 0, {}]]]}, {"class_name": "Activation", "config": {"name": "stack_4_block3_sortcut_swish", "trainable": true, "dtype": "float32", "activation": "swish"}, "name": "stack_4_block3_sortcut_swish", "inbound_nodes": [[["stack_4_block3_sortcut_bn", 0, 0, {}]]]}, {"class_name": "DepthwiseConv2D", "config": {"name": "stack_4_block3_MB_dw_", "trainable": true, "dtype": "float32", "kernel_size": [3, 3], "strides": [1, 1], "padding": "same", "data_format": "channels_last", "dilation_rate": [1, 1], "groups": 1, "activation": "linear", "use_bias": false, "bias_initializer": {"class_name": "Zeros", "config": {}}, "bias_regularizer": null, "activity_regularizer": null, "bias_constraint": null, "depth_multiplier": 1, "depthwise_initializer": {"class_name": "VarianceScaling", "config": {"scale": 2.0, "mode": "fan_out", "distribution": "truncated_normal", "seed": null}, "shared_object_id": 1}, "depthwise_regularizer": null, "depthwise_constraint": null}, "name": "stack_4_block3_MB_dw_", "inbound_nodes": [[["stack_4_block3_sortcut_swish", 0, 0, {}]]]}, {"class_name": "BatchNormalization", "config": {"name": "stack_4_block3_MB_dw_bn", "trainable": true, "dtype": "float32", "axis": [3], "momentum": 0.9, "epsilon": 0.001, "center": true, "scale": true, "beta_initializer": {"class_name": "Zeros", "config": {}}, "gamma_initializer": {"class_name": "Ones", "config": {}}, "moving_mean_initializer": {"class_name": "Zeros", "config": {}}, "moving_variance_initializer": {"class_name": "Ones", "config": {}}, "beta_regularizer": null, "gamma_regularizer": null, "beta_constraint": null, "gamma_constraint": null}, "name": "stack_4_block3_MB_dw_bn", "inbound_nodes": [[["stack_4_block3_MB_dw_", 0, 0, {}]]]}, {"class_name": "Activation", "config": {"name": "stack_4_block3_MB_dw_swish", "trainable": true, "dtype": "float32", "activation": "swish"}, "name": "stack_4_block3_MB_dw_swish", "inbound_nodes": [[["stack_4_block3_MB_dw_bn", 0, 0, {}]]]}, {"class_name": "TensorFlowOpLayer", "config": {"name": "Mean_6", "trainable": true, "dtype": "float32", "node_def": {"name": "Mean_6", "op": "Mean", "input": ["stack_4_block3_MB_dw_swish/IdentityN", "Mean_6/reduction_indices"], "attr": {"T": {"type": "DT_FLOAT"}, "Tidx": {"type": "DT_INT32"}, "keep_dims": {"b": true}}}, "constants": {"1": [1, 2]}}, "name": "tf_op_layer_Mean_6", "inbound_nodes": [[["stack_4_block3_MB_dw_swish", 0, 0, {}]]]}, {"class_name": "Conv2D", "config": {"name": "stack_4_block3_se_1_conv", "trainable": true, "dtype": "float32", "filters": 28, "kernel_size": [1, 1], "strides": [1, 1], "padding": "valid", "data_format": "channels_last", "dilation_rate": [1, 1], "groups": 1, "activation": "linear", "use_bias": true, "kernel_initializer": {"class_name": "VarianceScaling", "config": {"scale": 2.0, "mode": "fan_out", "distribution": "truncated_normal", "seed": null}, "shared_object_id": 1}, "bias_initializer": {"class_name": "Zeros", "config": {}}, "kernel_regularizer": null, "bias_regularizer": null, "activity_regularizer": null, "kernel_constraint": null, "bias_constraint": null}, "name": "stack_4_block3_se_1_conv", "inbound_nodes": [[["tf_op_layer_Mean_6", 0, 0, {}]]]}, {"class_name": "Activation", "config": {"name": "activation_12", "trainable": true, "dtype": "float32", "activation": "swish"}, "name": "activation_12", "inbound_nodes": [[["stack_4_block3_se_1_conv", 0, 0, {}]]]}, {"class_name": "Conv2D", "config": {"name": "stack_4_block3_se_2_conv", "trainable": true, "dtype": "float32", "filters": 672, "kernel_size": [1, 1], "strides": [1, 1], "padding": "valid", "data_format": "channels_last", "dilation_rate": [1, 1], "groups": 1, "activation": "linear", "use_bias": true, "kernel_initializer": {"class_name": "VarianceScaling", "config": {"scale": 2.0, "mode": "fan_out", "distribution": "truncated_normal", "seed": null}, "shared_object_id": 1}, "bias_initializer": {"class_name": "Zeros", "config": {}}, "kernel_regularizer": null, "bias_regularizer": null, "activity_regularizer": null, "kernel_constraint": null, "bias_constraint": null}, "name": "stack_4_block3_se_2_conv", "inbound_nodes": [[["activation_12", 0, 0, {}]]]}, {"class_name": "Activation", "config": {"name": "activation_13", "trainable": true, "dtype": "float32", "activation": "sigmoid"}, "name": "activation_13", "inbound_nodes": [[["stack_4_block3_se_2_conv", 0, 0, {}]]]}, {"class_name": "Multiply", "config": {"name": "multiply_6", "trainable": true, "dtype": "float32"}, "name": "multiply_6", "inbound_nodes": [[["stack_4_block3_MB_dw_swish", 0, 0, {}], ["activation_13", 0, 0, {}]]]}, {"class_name": "Conv2D", "config": {"name": "stack_4_block3_MB_pw_conv", "trainable": true, "dtype": "float32", "filters": 112, "kernel_size": [1, 1], "strides": [1, 1], "padding": "valid", "data_format": "channels_last", "dilation_rate": [1, 1], "groups": 1, "activation": "linear", "use_bias": false, "kernel_initializer": {"class_name": "VarianceScaling", "config": {"scale": 2.0, "mode": "fan_out", "distribution": "truncated_normal", "seed": null}, "shared_object_id": 1}, "bias_initializer": {"class_name": "Zeros", "config": {}}, "kernel_regularizer": null, "bias_regularizer": null, "activity_regularizer": null, "kernel_constraint": null, "bias_constraint": null}, "name": "stack_4_block3_MB_pw_conv", "inbound_nodes": [[["multiply_6", 0, 0, {}]]]}, {"class_name": "BatchNormalization", "config": {"name": "stack_4_block3_MB_pw_bn", "trainable": true, "dtype": "float32", "axis": [3], "momentum": 0.9, "epsilon": 0.001, "center": true, "scale": true, "beta_initializer": {"class_name": "Zeros", "config": {}}, "gamma_initializer": {"class_name": "Ones", "config": {}}, "moving_mean_initializer": {"class_name": "Zeros", "config": {}}, "moving_variance_initializer": {"class_name": "Ones", "config": {}}, "beta_regularizer": null, "gamma_regularizer": null, "beta_constraint": null, "gamma_constraint": null}, "name": "stack_4_block3_MB_pw_bn", "inbound_nodes": [[["stack_4_block3_MB_pw_conv", 0, 0, {}]]]}, {"class_name": "Add", "config": {"name": "add_6", "trainable": true, "dtype": "float32"}, "name": "add_6", "inbound_nodes": [[["add_5", 0, 0, {}], ["stack_4_block3_MB_pw_bn", 0, 0, {}]]]}, {"class_name": "Conv2D", "config": {"name": "stack_4_block4_sortcut_conv", "trainable": true, "dtype": "float32", "filters": 672, "kernel_size": [1, 1], "strides": [1, 1], "padding": "valid", "data_format": "channels_last", "dilation_rate": [1, 1], "groups": 1, "activation": "linear", "use_bias": false, "kernel_initializer": {"class_name": "VarianceScaling", "config": {"scale": 2.0, "mode": "fan_out", "distribution": "truncated_normal", "seed": null}, "shared_object_id": 1}, "bias_initializer": {"class_name": "Zeros", "config": {}}, "kernel_regularizer": null, "bias_regularizer": null, "activity_regularizer": null, "kernel_constraint": null, "bias_constraint": null}, "name": "stack_4_block4_sortcut_conv", "inbound_nodes": [[["add_6", 0, 0, {}]]]}, {"class_name": "BatchNormalization", "config": {"name": "stack_4_block4_sortcut_bn", "trainable": true, "dtype": "float32", "axis": [3], "momentum": 0.9, "epsilon": 0.001, "center": true, "scale": true, "beta_initializer": {"class_name": "Zeros", "config": {}}, "gamma_initializer": {"class_name": "Ones", "config": {}}, "moving_mean_initializer": {"class_name": "Zeros", "config": {}}, "moving_variance_initializer": {"class_name": "Ones", "config": {}}, "beta_regularizer": null, "gamma_regularizer": null, "beta_constraint": null, "gamma_constraint": null}, "name": "stack_4_block4_sortcut_bn", "inbound_nodes": [[["stack_4_block4_sortcut_conv", 0, 0, {}]]]}, {"class_name": "Activation", "config": {"name": "stack_4_block4_sortcut_swish", "trainable": true, "dtype": "float32", "activation": "swish"}, "name": "stack_4_block4_sortcut_swish", "inbound_nodes": [[["stack_4_block4_sortcut_bn", 0, 0, {}]]]}, {"class_name": "DepthwiseConv2D", "config": {"name": "stack_4_block4_MB_dw_", "trainable": true, "dtype": "float32", "kernel_size": [3, 3], "strides": [1, 1], "padding": "same", "data_format": "channels_last", "dilation_rate": [1, 1], "groups": 1, "activation": "linear", "use_bias": false, "bias_initializer": {"class_name": "Zeros", "config": {}}, "bias_regularizer": null, "activity_regularizer": null, "bias_constraint": null, "depth_multiplier": 1, "depthwise_initializer": {"class_name": "VarianceScaling", "config": {"scale": 2.0, "mode": "fan_out", "distribution": "truncated_normal", "seed": null}, "shared_object_id": 1}, "depthwise_regularizer": null, "depthwise_constraint": null}, "name": "stack_4_block4_MB_dw_", "inbound_nodes": [[["stack_4_block4_sortcut_swish", 0, 0, {}]]]}, {"class_name": "BatchNormalization", "config": {"name": "stack_4_block4_MB_dw_bn", "trainable": true, "dtype": "float32", "axis": [3], "momentum": 0.9, "epsilon": 0.001, "center": true, "scale": true, "beta_initializer": {"class_name": "Zeros", "config": {}}, "gamma_initializer": {"class_name": "Ones", "config": {}}, "moving_mean_initializer": {"class_name": "Zeros", "config": {}}, "moving_variance_initializer": {"class_name": "Ones", "config": {}}, "beta_regularizer": null, "gamma_regularizer": null, "beta_constraint": null, "gamma_constraint": null}, "name": "stack_4_block4_MB_dw_bn", "inbound_nodes": [[["stack_4_block4_MB_dw_", 0, 0, {}]]]}, {"class_name": "Activation", "config": {"name": "stack_4_block4_MB_dw_swish", "trainable": true, "dtype": "float32", "activation": "swish"}, "name": "stack_4_block4_MB_dw_swish", "inbound_nodes": [[["stack_4_block4_MB_dw_bn", 0, 0, {}]]]}, {"class_name": "TensorFlowOpLayer", "config": {"name": "Mean_7", "trainable": true, "dtype": "float32", "node_def": {"name": "Mean_7", "op": "Mean", "input": ["stack_4_block4_MB_dw_swish/IdentityN", "Mean_7/reduction_indices"], "attr": {"Tidx": {"type": "DT_INT32"}, "T": {"type": "DT_FLOAT"}, "keep_dims": {"b": true}}}, "constants": {"1": [1, 2]}}, "name": "tf_op_layer_Mean_7", "inbound_nodes": [[["stack_4_block4_MB_dw_swish", 0, 0, {}]]]}, {"class_name": "Conv2D", "config": {"name": "stack_4_block4_se_1_conv", "trainable": true, "dtype": "float32", "filters": 28, "kernel_size": [1, 1], "strides": [1, 1], "padding": "valid", "data_format": "channels_last", "dilation_rate": [1, 1], "groups": 1, "activation": "linear", "use_bias": true, "kernel_initializer": {"class_name": "VarianceScaling", "config": {"scale": 2.0, "mode": "fan_out", "distribution": "truncated_normal", "seed": null}, "shared_object_id": 1}, "bias_initializer": {"class_name": "Zeros", "config": {}}, "kernel_regularizer": null, "bias_regularizer": null, "activity_regularizer": null, "kernel_constraint": null, "bias_constraint": null}, "name": "stack_4_block4_se_1_conv", "inbound_nodes": [[["tf_op_layer_Mean_7", 0, 0, {}]]]}, {"class_name": "Activation", "config": {"name": "activation_14", "trainable": true, "dtype": "float32", "activation": "swish"}, "name": "activation_14", "inbound_nodes": [[["stack_4_block4_se_1_conv", 0, 0, {}]]]}, {"class_name": "Conv2D", "config": {"name": "stack_4_block4_se_2_conv", "trainable": true, "dtype": "float32", "filters": 672, "kernel_size": [1, 1], "strides": [1, 1], "padding": "valid", "data_format": "channels_last", "dilation_rate": [1, 1], "groups": 1, "activation": "linear", "use_bias": true, "kernel_initializer": {"class_name": "VarianceScaling", "config": {"scale": 2.0, "mode": "fan_out", "distribution": "truncated_normal", "seed": null}, "shared_object_id": 1}, "bias_initializer": {"class_name": "Zeros", "config": {}}, "kernel_regularizer": null, "bias_regularizer": null, "activity_regularizer": null, "kernel_constraint": null, "bias_constraint": null}, "name": "stack_4_block4_se_2_conv", "inbound_nodes": [[["activation_14", 0, 0, {}]]]}, {"class_name": "Activation", "config": {"name": "activation_15", "trainable": true, "dtype": "float32", "activation": "sigmoid"}, "name": "activation_15", "inbound_nodes": [[["stack_4_block4_se_2_conv", 0, 0, {}]]]}, {"class_name": "Multiply", "config": {"name": "multiply_7", "trainable": true, "dtype": "float32"}, "name": "multiply_7", "inbound_nodes": [[["stack_4_block4_MB_dw_swish", 0, 0, {}], ["activation_15", 0, 0, {}]]]}, {"class_name": "Conv2D", "config": {"name": "stack_4_block4_MB_pw_conv", "trainable": true, "dtype": "float32", "filters": 112, "kernel_size": [1, 1], "strides": [1, 1], "padding": "valid", "data_format": "channels_last", "dilation_rate": [1, 1], "groups": 1, "activation": "linear", "use_bias": false, "kernel_initializer": {"class_name": "VarianceScaling", "config": {"scale": 2.0, "mode": "fan_out", "distribution": "truncated_normal", "seed": null}, "shared_object_id": 1}, "bias_initializer": {"class_name": "Zeros", "config": {}}, "kernel_regularizer": null, "bias_regularizer": null, "activity_regularizer": null, "kernel_constraint": null, "bias_constraint": null}, "name": "stack_4_block4_MB_pw_conv", "inbound_nodes": [[["multiply_7", 0, 0, {}]]]}, {"class_name": "BatchNormalization", "config": {"name": "stack_4_block4_MB_pw_bn", "trainable": true, "dtype": "float32", "axis": [3], "momentum": 0.9, "epsilon": 0.001, "center": true, "scale": true, "beta_initializer": {"class_name": "Zeros", "config": {}}, "gamma_initializer": {"class_name": "Ones", "config": {}}, "moving_mean_initializer": {"class_name": "Zeros", "config": {}}, "moving_variance_initializer": {"class_name": "Ones", "config": {}}, "beta_regularizer": null, "gamma_regularizer": null, "beta_constraint": null, "gamma_constraint": null}, "name": "stack_4_block4_MB_pw_bn", "inbound_nodes": [[["stack_4_block4_MB_pw_conv", 0, 0, {}]]]}, {"class_name": "Add", "config": {"name": "add_7", "trainable": true, "dtype": "float32"}, "name": "add_7", "inbound_nodes": [[["add_6", 0, 0, {}], ["stack_4_block4_MB_pw_bn", 0, 0, {}]]]}, {"class_name": "Conv2D", "config": {"name": "stack_5_block0_sortcut_conv", "trainable": true, "dtype": "float32", "filters": 672, "kernel_size": [1, 1], "strides": [1, 1], "padding": "valid", "data_format": "channels_last", "dilation_rate": [1, 1], "groups": 1, "activation": "linear", "use_bias": false, "kernel_initializer": {"class_name": "VarianceScaling", "config": {"scale": 2.0, "mode": "fan_out", "distribution": "truncated_normal", "seed": null}, "shared_object_id": 1}, "bias_initializer": {"class_name": "Zeros", "config": {}}, "kernel_regularizer": null, "bias_regularizer": null, "activity_regularizer": null, "kernel_constraint": null, "bias_constraint": null}, "name": "stack_5_block0_sortcut_conv", "inbound_nodes": [[["add_7", 0, 0, {}]]]}, {"class_name": "BatchNormalization", "config": {"name": "stack_5_block0_sortcut_bn", "trainable": true, "dtype": "float32", "axis": [3], "momentum": 0.9, "epsilon": 0.001, "center": true, "scale": true, "beta_initializer": {"class_name": "Zeros", "config": {}}, "gamma_initializer": {"class_name": "Ones", "config": {}}, "moving_mean_initializer": {"class_name": "Zeros", "config": {}}, "moving_variance_initializer": {"class_name": "Ones", "config": {}}, "beta_regularizer": null, "gamma_regularizer": null, "beta_constraint": null, "gamma_constraint": null}, "name": "stack_5_block0_sortcut_bn", "inbound_nodes": [[["stack_5_block0_sortcut_conv", 0, 0, {}]]]}, {"class_name": "Activation", "config": {"name": "stack_5_block0_sortcut_swish", "trainable": true, "dtype": "float32", "activation": "swish"}, "name": "stack_5_block0_sortcut_swish", "inbound_nodes": [[["stack_5_block0_sortcut_bn", 0, 0, {}]]]}, {"class_name": "DepthwiseConv2D", "config": {"name": "stack_5_block0_MB_dw_", "trainable": true, "dtype": "float32", "kernel_size": [3, 3], "strides": [2, 2], "padding": "same", "data_format": "channels_last", "dilation_rate": [1, 1], "groups": 1, "activation": "linear", "use_bias": false, "bias_initializer": {"class_name": "Zeros", "config": {}}, "bias_regularizer": null, "activity_regularizer": null, "bias_constraint": null, "depth_multiplier": 1, "depthwise_initializer": {"class_name": "VarianceScaling", "config": {"scale": 2.0, "mode": "fan_out", "distribution": "truncated_normal", "seed": null}, "shared_object_id": 1}, "depthwise_regularizer": null, "depthwise_constraint": null}, "name": "stack_5_block0_MB_dw_", "inbound_nodes": [[["stack_5_block0_sortcut_swish", 0, 0, {}]]]}, {"class_name": "BatchNormalization", "config": {"name": "stack_5_block0_MB_dw_bn", "trainable": true, "dtype": "float32", "axis": [3], "momentum": 0.9, "epsilon": 0.001, "center": true, "scale": true, "beta_initializer": {"class_name": "Zeros", "config": {}}, "gamma_initializer": {"class_name": "Ones", "config": {}}, "moving_mean_initializer": {"class_name": "Zeros", "config": {}}, "moving_variance_initializer": {"class_name": "Ones", "config": {}}, "beta_regularizer": null, "gamma_regularizer": null, "beta_constraint": null, "gamma_constraint": null}, "name": "stack_5_block0_MB_dw_bn", "inbound_nodes": [[["stack_5_block0_MB_dw_", 0, 0, {}]]]}, {"class_name": "Activation", "config": {"name": "stack_5_block0_MB_dw_swish", "trainable": true, "dtype": "float32", "activation": "swish"}, "name": "stack_5_block0_MB_dw_swish", "inbound_nodes": [[["stack_5_block0_MB_dw_bn", 0, 0, {}]]]}, {"class_name": "TensorFlowOpLayer", "config": {"name": "Mean_8", "trainable": true, "dtype": "float32", "node_def": {"name": "Mean_8", "op": "Mean", "input": ["stack_5_block0_MB_dw_swish/IdentityN", "Mean_8/reduction_indices"], "attr": {"keep_dims": {"b": true}, "Tidx": {"type": "DT_INT32"}, "T": {"type": "DT_FLOAT"}}}, "constants": {"1": [1, 2]}}, "name": "tf_op_layer_Mean_8", "inbound_nodes": [[["stack_5_block0_MB_dw_swish", 0, 0, {}]]]}, {"class_name": "Conv2D", "config": {"name": "stack_5_block0_se_1_conv", "trainable": true, "dtype": "float32", "filters": 28, "kernel_size": [1, 1], "strides": [1, 1], "padding": "valid", "data_format": "channels_last", "dilation_rate": [1, 1], "groups": 1, "activation": "linear", "use_bias": true, "kernel_initializer": {"class_name": "VarianceScaling", "config": {"scale": 2.0, "mode": "fan_out", "distribution": "truncated_normal", "seed": null}, "shared_object_id": 1}, "bias_initializer": {"class_name": "Zeros", "config": {}}, "kernel_regularizer": null, "bias_regularizer": null, "activity_regularizer": null, "kernel_constraint": null, "bias_constraint": null}, "name": "stack_5_block0_se_1_conv", "inbound_nodes": [[["tf_op_layer_Mean_8", 0, 0, {}]]]}, {"class_name": "Activation", "config": {"name": "activation_16", "trainable": true, "dtype": "float32", "activation": "swish"}, "name": "activation_16", "inbound_nodes": [[["stack_5_block0_se_1_conv", 0, 0, {}]]]}, {"class_name": "Conv2D", "config": {"name": "stack_5_block0_se_2_conv", "trainable": true, "dtype": "float32", "filters": 672, "kernel_size": [1, 1], "strides": [1, 1], "padding": "valid", "data_format": "channels_last", "dilation_rate": [1, 1], "groups": 1, "activation": "linear", "use_bias": true, "kernel_initializer": {"class_name": "VarianceScaling", "config": {"scale": 2.0, "mode": "fan_out", "distribution": "truncated_normal", "seed": null}, "shared_object_id": 1}, "bias_initializer": {"class_name": "Zeros", "config": {}}, "kernel_regularizer": null, "bias_regularizer": null, "activity_regularizer": null, "kernel_constraint": null, "bias_constraint": null}, "name": "stack_5_block0_se_2_conv", "inbound_nodes": [[["activation_16", 0, 0, {}]]]}, {"class_name": "Activation", "config": {"name": "activation_17", "trainable": true, "dtype": "float32", "activation": "sigmoid"}, "name": "activation_17", "inbound_nodes": [[["stack_5_block0_se_2_conv", 0, 0, {}]]]}, {"class_name": "Multiply", "config": {"name": "multiply_8", "trainable": true, "dtype": "float32"}, "name": "multiply_8", "inbound_nodes": [[["stack_5_block0_MB_dw_swish", 0, 0, {}], ["activation_17", 0, 0, {}]]]}, {"class_name": "Conv2D", "config": {"name": "stack_5_block0_MB_pw_conv", "trainable": true, "dtype": "float32", "filters": 192, "kernel_size": [1, 1], "strides": [1, 1], "padding": "valid", "data_format": "channels_last", "dilation_rate": [1, 1], "groups": 1, "activation": "linear", "use_bias": false, "kernel_initializer": {"class_name": "VarianceScaling", "config": {"scale": 2.0, "mode": "fan_out", "distribution": "truncated_normal", "seed": null}, "shared_object_id": 1}, "bias_initializer": {"class_name": "Zeros", "config": {}}, "kernel_regularizer": null, "bias_regularizer": null, "activity_regularizer": null, "kernel_constraint": null, "bias_constraint": null}, "name": "stack_5_block0_MB_pw_conv", "inbound_nodes": [[["multiply_8", 0, 0, {}]]]}, {"class_name": "BatchNormalization", "config": {"name": "stack_5_block0_MB_pw_bn", "trainable": true, "dtype": "float32", "axis": [3], "momentum": 0.9, "epsilon": 0.001, "center": true, "scale": true, "beta_initializer": {"class_name": "Zeros", "config": {}}, "gamma_initializer": {"class_name": "Ones", "config": {}}, "moving_mean_initializer": {"class_name": "Zeros", "config": {}}, "moving_variance_initializer": {"class_name": "Ones", "config": {}}, "beta_regularizer": null, "gamma_regularizer": null, "beta_constraint": null, "gamma_constraint": null}, "name": "stack_5_block0_MB_pw_bn", "inbound_nodes": [[["stack_5_block0_MB_pw_conv", 0, 0, {}]]]}, {"class_name": "Conv2D", "config": {"name": "stack_5_block1_sortcut_conv", "trainable": true, "dtype": "float32", "filters": 1152, "kernel_size": [1, 1], "strides": [1, 1], "padding": "valid", "data_format": "channels_last", "dilation_rate": [1, 1], "groups": 1, "activation": "linear", "use_bias": false, "kernel_initializer": {"class_name": "VarianceScaling", "config": {"scale": 2.0, "mode": "fan_out", "distribution": "truncated_normal", "seed": null}, "shared_object_id": 1}, "bias_initializer": {"class_name": "Zeros", "config": {}}, "kernel_regularizer": null, "bias_regularizer": null, "activity_regularizer": null, "kernel_constraint": null, "bias_constraint": null}, "name": "stack_5_block1_sortcut_conv", "inbound_nodes": [[["stack_5_block0_MB_pw_bn", 0, 0, {}]]]}, {"class_name": "BatchNormalization", "config": {"name": "stack_5_block1_sortcut_bn", "trainable": true, "dtype": "float32", "axis": [3], "momentum": 0.9, "epsilon": 0.001, "center": true, "scale": true, "beta_initializer": {"class_name": "Zeros", "config": {}}, "gamma_initializer": {"class_name": "Ones", "config": {}}, "moving_mean_initializer": {"class_name": "Zeros", "config": {}}, "moving_variance_initializer": {"class_name": "Ones", "config": {}}, "beta_regularizer": null, "gamma_regularizer": null, "beta_constraint": null, "gamma_constraint": null}, "name": "stack_5_block1_sortcut_bn", "inbound_nodes": [[["stack_5_block1_sortcut_conv", 0, 0, {}]]]}, {"class_name": "Activation", "config": {"name": "stack_5_block1_sortcut_swish", "trainable": true, "dtype": "float32", "activation": "swish"}, "name": "stack_5_block1_sortcut_swish", "inbound_nodes": [[["stack_5_block1_sortcut_bn", 0, 0, {}]]]}, {"class_name": "DepthwiseConv2D", "config": {"name": "stack_5_block1_MB_dw_", "trainable": true, "dtype": "float32", "kernel_size": [3, 3], "strides": [1, 1], "padding": "same", "data_format": "channels_last", "dilation_rate": [1, 1], "groups": 1, "activation": "linear", "use_bias": false, "bias_initializer": {"class_name": "Zeros", "config": {}}, "bias_regularizer": null, "activity_regularizer": null, "bias_constraint": null, "depth_multiplier": 1, "depthwise_initializer": {"class_name": "VarianceScaling", "config": {"scale": 2.0, "mode": "fan_out", "distribution": "truncated_normal", "seed": null}, "shared_object_id": 1}, "depthwise_regularizer": null, "depthwise_constraint": null}, "name": "stack_5_block1_MB_dw_", "inbound_nodes": [[["stack_5_block1_sortcut_swish", 0, 0, {}]]]}, {"class_name": "BatchNormalization", "config": {"name": "stack_5_block1_MB_dw_bn", "trainable": true, "dtype": "float32", "axis": [3], "momentum": 0.9, "epsilon": 0.001, "center": true, "scale": true, "beta_initializer": {"class_name": "Zeros", "config": {}}, "gamma_initializer": {"class_name": "Ones", "config": {}}, "moving_mean_initializer": {"class_name": "Zeros", "config": {}}, "moving_variance_initializer": {"class_name": "Ones", "config": {}}, "beta_regularizer": null, "gamma_regularizer": null, "beta_constraint": null, "gamma_constraint": null}, "name": "stack_5_block1_MB_dw_bn", "inbound_nodes": [[["stack_5_block1_MB_dw_", 0, 0, {}]]]}, {"class_name": "Activation", "config": {"name": "stack_5_block1_MB_dw_swish", "trainable": true, "dtype": "float32", "activation": "swish"}, "name": "stack_5_block1_MB_dw_swish", "inbound_nodes": [[["stack_5_block1_MB_dw_bn", 0, 0, {}]]]}, {"class_name": "TensorFlowOpLayer", "config": {"name": "Mean_9", "trainable": true, "dtype": "float32", "node_def": {"name": "Mean_9", "op": "Mean", "input": ["stack_5_block1_MB_dw_swish/IdentityN", "Mean_9/reduction_indices"], "attr": {"Tidx": {"type": "DT_INT32"}, "keep_dims": {"b": true}, "T": {"type": "DT_FLOAT"}}}, "constants": {"1": [1, 2]}}, "name": "tf_op_layer_Mean_9", "inbound_nodes": [[["stack_5_block1_MB_dw_swish", 0, 0, {}]]]}, {"class_name": "Conv2D", "config": {"name": "stack_5_block1_se_1_conv", "trainable": true, "dtype": "float32", "filters": 48, "kernel_size": [1, 1], "strides": [1, 1], "padding": "valid", "data_format": "channels_last", "dilation_rate": [1, 1], "groups": 1, "activation": "linear", "use_bias": true, "kernel_initializer": {"class_name": "VarianceScaling", "config": {"scale": 2.0, "mode": "fan_out", "distribution": "truncated_normal", "seed": null}, "shared_object_id": 1}, "bias_initializer": {"class_name": "Zeros", "config": {}}, "kernel_regularizer": null, "bias_regularizer": null, "activity_regularizer": null, "kernel_constraint": null, "bias_constraint": null}, "name": "stack_5_block1_se_1_conv", "inbound_nodes": [[["tf_op_layer_Mean_9", 0, 0, {}]]]}, {"class_name": "Activation", "config": {"name": "activation_18", "trainable": true, "dtype": "float32", "activation": "swish"}, "name": "activation_18", "inbound_nodes": [[["stack_5_block1_se_1_conv", 0, 0, {}]]]}, {"class_name": "Conv2D", "config": {"name": "stack_5_block1_se_2_conv", "trainable": true, "dtype": "float32", "filters": 1152, "kernel_size": [1, 1], "strides": [1, 1], "padding": "valid", "data_format": "channels_last", "dilation_rate": [1, 1], "groups": 1, "activation": "linear", "use_bias": true, "kernel_initializer": {"class_name": "VarianceScaling", "config": {"scale": 2.0, "mode": "fan_out", "distribution": "truncated_normal", "seed": null}, "shared_object_id": 1}, "bias_initializer": {"class_name": "Zeros", "config": {}}, "kernel_regularizer": null, "bias_regularizer": null, "activity_regularizer": null, "kernel_constraint": null, "bias_constraint": null}, "name": "stack_5_block1_se_2_conv", "inbound_nodes": [[["activation_18", 0, 0, {}]]]}, {"class_name": "Activation", "config": {"name": "activation_19", "trainable": true, "dtype": "float32", "activation": "sigmoid"}, "name": "activation_19", "inbound_nodes": [[["stack_5_block1_se_2_conv", 0, 0, {}]]]}, {"class_name": "Multiply", "config": {"name": "multiply_9", "trainable": true, "dtype": "float32"}, "name": "multiply_9", "inbound_nodes": [[["stack_5_block1_MB_dw_swish", 0, 0, {}], ["activation_19", 0, 0, {}]]]}, {"class_name": "Conv2D", "config": {"name": "stack_5_block1_MB_pw_conv", "trainable": true, "dtype": "float32", "filters": 192, "kernel_size": [1, 1], "strides": [1, 1], "padding": "valid", "data_format": "channels_last", "dilation_rate": [1, 1], "groups": 1, "activation": "linear", "use_bias": false, "kernel_initializer": {"class_name": "VarianceScaling", "config": {"scale": 2.0, "mode": "fan_out", "distribution": "truncated_normal", "seed": null}, "shared_object_id": 1}, "bias_initializer": {"class_name": "Zeros", "config": {}}, "kernel_regularizer": null, "bias_regularizer": null, "activity_regularizer": null, "kernel_constraint": null, "bias_constraint": null}, "name": "stack_5_block1_MB_pw_conv", "inbound_nodes": [[["multiply_9", 0, 0, {}]]]}, {"class_name": "BatchNormalization", "config": {"name": "stack_5_block1_MB_pw_bn", "trainable": true, "dtype": "float32", "axis": [3], "momentum": 0.9, "epsilon": 0.001, "center": true, "scale": true, "beta_initializer": {"class_name": "Zeros", "config": {}}, "gamma_initializer": {"class_name": "Ones", "config": {}}, "moving_mean_initializer": {"class_name": "Zeros", "config": {}}, "moving_variance_initializer": {"class_name": "Ones", "config": {}}, "beta_regularizer": null, "gamma_regularizer": null, "beta_constraint": null, "gamma_constraint": null}, "name": "stack_5_block1_MB_pw_bn", "inbound_nodes": [[["stack_5_block1_MB_pw_conv", 0, 0, {}]]]}, {"class_name": "Add", "config": {"name": "add_8", "trainable": true, "dtype": "float32"}, "name": "add_8", "inbound_nodes": [[["stack_5_block0_MB_pw_bn", 0, 0, {}], ["stack_5_block1_MB_pw_bn", 0, 0, {}]]]}, {"class_name": "Conv2D", "config": {"name": "stack_5_block2_sortcut_conv", "trainable": true, "dtype": "float32", "filters": 1152, "kernel_size": [1, 1], "strides": [1, 1], "padding": "valid", "data_format": "channels_last", "dilation_rate": [1, 1], "groups": 1, "activation": "linear", "use_bias": false, "kernel_initializer": {"class_name": "VarianceScaling", "config": {"scale": 2.0, "mode": "fan_out", "distribution": "truncated_normal", "seed": null}, "shared_object_id": 1}, "bias_initializer": {"class_name": "Zeros", "config": {}}, "kernel_regularizer": null, "bias_regularizer": null, "activity_regularizer": null, "kernel_constraint": null, "bias_constraint": null}, "name": "stack_5_block2_sortcut_conv", "inbound_nodes": [[["add_8", 0, 0, {}]]]}, {"class_name": "BatchNormalization", "config": {"name": "stack_5_block2_sortcut_bn", "trainable": true, "dtype": "float32", "axis": [3], "momentum": 0.9, "epsilon": 0.001, "center": true, "scale": true, "beta_initializer": {"class_name": "Zeros", "config": {}}, "gamma_initializer": {"class_name": "Ones", "config": {}}, "moving_mean_initializer": {"class_name": "Zeros", "config": {}}, "moving_variance_initializer": {"class_name": "Ones", "config": {}}, "beta_regularizer": null, "gamma_regularizer": null, "beta_constraint": null, "gamma_constraint": null}, "name": "stack_5_block2_sortcut_bn", "inbound_nodes": [[["stack_5_block2_sortcut_conv", 0, 0, {}]]]}, {"class_name": "Activation", "config": {"name": "stack_5_block2_sortcut_swish", "trainable": true, "dtype": "float32", "activation": "swish"}, "name": "stack_5_block2_sortcut_swish", "inbound_nodes": [[["stack_5_block2_sortcut_bn", 0, 0, {}]]]}, {"class_name": "DepthwiseConv2D", "config": {"name": "stack_5_block2_MB_dw_", "trainable": true, "dtype": "float32", "kernel_size": [3, 3], "strides": [1, 1], "padding": "same", "data_format": "channels_last", "dilation_rate": [1, 1], "groups": 1, "activation": "linear", "use_bias": false, "bias_initializer": {"class_name": "Zeros", "config": {}}, "bias_regularizer": null, "activity_regularizer": null, "bias_constraint": null, "depth_multiplier": 1, "depthwise_initializer": {"class_name": "VarianceScaling", "config": {"scale": 2.0, "mode": "fan_out", "distribution": "truncated_normal", "seed": null}, "shared_object_id": 1}, "depthwise_regularizer": null, "depthwise_constraint": null}, "name": "stack_5_block2_MB_dw_", "inbound_nodes": [[["stack_5_block2_sortcut_swish", 0, 0, {}]]]}, {"class_name": "BatchNormalization", "config": {"name": "stack_5_block2_MB_dw_bn", "trainable": true, "dtype": "float32", "axis": [3], "momentum": 0.9, "epsilon": 0.001, "center": true, "scale": true, "beta_initializer": {"class_name": "Zeros", "config": {}}, "gamma_initializer": {"class_name": "Ones", "config": {}}, "moving_mean_initializer": {"class_name": "Zeros", "config": {}}, "moving_variance_initializer": {"class_name": "Ones", "config": {}}, "beta_regularizer": null, "gamma_regularizer": null, "beta_constraint": null, "gamma_constraint": null}, "name": "stack_5_block2_MB_dw_bn", "inbound_nodes": [[["stack_5_block2_MB_dw_", 0, 0, {}]]]}, {"class_name": "Activation", "config": {"name": "stack_5_block2_MB_dw_swish", "trainable": true, "dtype": "float32", "activation": "swish"}, "name": "stack_5_block2_MB_dw_swish", "inbound_nodes": [[["stack_5_block2_MB_dw_bn", 0, 0, {}]]]}, {"class_name": "TensorFlowOpLayer", "config": {"name": "Mean_10", "trainable": true, "dtype": "float32", "node_def": {"name": "Mean_10", "op": "Mean", "input": ["stack_5_block2_MB_dw_swish/IdentityN", "Mean_10/reduction_indices"], "attr": {"keep_dims": {"b": true}, "T": {"type": "DT_FLOAT"}, "Tidx": {"type": "DT_INT32"}}}, "constants": {"1": [1, 2]}}, "name": "tf_op_layer_Mean_10", "inbound_nodes": [[["stack_5_block2_MB_dw_swish", 0, 0, {}]]]}, {"class_name": "Conv2D", "config": {"name": "stack_5_block2_se_1_conv", "trainable": true, "dtype": "float32", "filters": 48, "kernel_size": [1, 1], "strides": [1, 1], "padding": "valid", "data_format": "channels_last", "dilation_rate": [1, 1], "groups": 1, "activation": "linear", "use_bias": true, "kernel_initializer": {"class_name": "VarianceScaling", "config": {"scale": 2.0, "mode": "fan_out", "distribution": "truncated_normal", "seed": null}, "shared_object_id": 1}, "bias_initializer": {"class_name": "Zeros", "config": {}}, "kernel_regularizer": null, "bias_regularizer": null, "activity_regularizer": null, "kernel_constraint": null, "bias_constraint": null}, "name": "stack_5_block2_se_1_conv", "inbound_nodes": [[["tf_op_layer_Mean_10", 0, 0, {}]]]}, {"class_name": "Activation", "config": {"name": "activation_20", "trainable": true, "dtype": "float32", "activation": "swish"}, "name": "activation_20", "inbound_nodes": [[["stack_5_block2_se_1_conv", 0, 0, {}]]]}, {"class_name": "Conv2D", "config": {"name": "stack_5_block2_se_2_conv", "trainable": true, "dtype": "float32", "filters": 1152, "kernel_size": [1, 1], "strides": [1, 1], "padding": "valid", "data_format": "channels_last", "dilation_rate": [1, 1], "groups": 1, "activation": "linear", "use_bias": true, "kernel_initializer": {"class_name": "VarianceScaling", "config": {"scale": 2.0, "mode": "fan_out", "distribution": "truncated_normal", "seed": null}, "shared_object_id": 1}, "bias_initializer": {"class_name": "Zeros", "config": {}}, "kernel_regularizer": null, "bias_regularizer": null, "activity_regularizer": null, "kernel_constraint": null, "bias_constraint": null}, "name": "stack_5_block2_se_2_conv", "inbound_nodes": [[["activation_20", 0, 0, {}]]]}, {"class_name": "Activation", "config": {"name": "activation_21", "trainable": true, "dtype": "float32", "activation": "sigmoid"}, "name": "activation_21", "inbound_nodes": [[["stack_5_block2_se_2_conv", 0, 0, {}]]]}, {"class_name": "Multiply", "config": {"name": "multiply_10", "trainable": true, "dtype": "float32"}, "name": "multiply_10", "inbound_nodes": [[["stack_5_block2_MB_dw_swish", 0, 0, {}], ["activation_21", 0, 0, {}]]]}, {"class_name": "Conv2D", "config": {"name": "stack_5_block2_MB_pw_conv", "trainable": true, "dtype": "float32", "filters": 192, "kernel_size": [1, 1], "strides": [1, 1], "padding": "valid", "data_format": "channels_last", "dilation_rate": [1, 1], "groups": 1, "activation": "linear", "use_bias": false, "kernel_initializer": {"class_name": "VarianceScaling", "config": {"scale": 2.0, "mode": "fan_out", "distribution": "truncated_normal", "seed": null}, "shared_object_id": 1}, "bias_initializer": {"class_name": "Zeros", "config": {}}, "kernel_regularizer": null, "bias_regularizer": null, "activity_regularizer": null, "kernel_constraint": null, "bias_constraint": null}, "name": "stack_5_block2_MB_pw_conv", "inbound_nodes": [[["multiply_10", 0, 0, {}]]]}, {"class_name": "BatchNormalization", "config": {"name": "stack_5_block2_MB_pw_bn", "trainable": true, "dtype": "float32", "axis": [3], "momentum": 0.9, "epsilon": 0.001, "center": true, "scale": true, "beta_initializer": {"class_name": "Zeros", "config": {}}, "gamma_initializer": {"class_name": "Ones", "config": {}}, "moving_mean_initializer": {"class_name": "Zeros", "config": {}}, "moving_variance_initializer": {"class_name": "Ones", "config": {}}, "beta_regularizer": null, "gamma_regularizer": null, "beta_constraint": null, "gamma_constraint": null}, "name": "stack_5_block2_MB_pw_bn", "inbound_nodes": [[["stack_5_block2_MB_pw_conv", 0, 0, {}]]]}, {"class_name": "Add", "config": {"name": "add_9", "trainable": true, "dtype": "float32"}, "name": "add_9", "inbound_nodes": [[["add_8", 0, 0, {}], ["stack_5_block2_MB_pw_bn", 0, 0, {}]]]}, {"class_name": "Conv2D", "config": {"name": "stack_5_block3_sortcut_conv", "trainable": true, "dtype": "float32", "filters": 1152, "kernel_size": [1, 1], "strides": [1, 1], "padding": "valid", "data_format": "channels_last", "dilation_rate": [1, 1], "groups": 1, "activation": "linear", "use_bias": false, "kernel_initializer": {"class_name": "VarianceScaling", "config": {"scale": 2.0, "mode": "fan_out", "distribution": "truncated_normal", "seed": null}, "shared_object_id": 1}, "bias_initializer": {"class_name": "Zeros", "config": {}}, "kernel_regularizer": null, "bias_regularizer": null, "activity_regularizer": null, "kernel_constraint": null, "bias_constraint": null}, "name": "stack_5_block3_sortcut_conv", "inbound_nodes": [[["add_9", 0, 0, {}]]]}, {"class_name": "BatchNormalization", "config": {"name": "stack_5_block3_sortcut_bn", "trainable": true, "dtype": "float32", "axis": [3], "momentum": 0.9, "epsilon": 0.001, "center": true, "scale": true, "beta_initializer": {"class_name": "Zeros", "config": {}}, "gamma_initializer": {"class_name": "Ones", "config": {}}, "moving_mean_initializer": {"class_name": "Zeros", "config": {}}, "moving_variance_initializer": {"class_name": "Ones", "config": {}}, "beta_regularizer": null, "gamma_regularizer": null, "beta_constraint": null, "gamma_constraint": null}, "name": "stack_5_block3_sortcut_bn", "inbound_nodes": [[["stack_5_block3_sortcut_conv", 0, 0, {}]]]}, {"class_name": "Activation", "config": {"name": "stack_5_block3_sortcut_swish", "trainable": true, "dtype": "float32", "activation": "swish"}, "name": "stack_5_block3_sortcut_swish", "inbound_nodes": [[["stack_5_block3_sortcut_bn", 0, 0, {}]]]}, {"class_name": "DepthwiseConv2D", "config": {"name": "stack_5_block3_MB_dw_", "trainable": true, "dtype": "float32", "kernel_size": [3, 3], "strides": [1, 1], "padding": "same", "data_format": "channels_last", "dilation_rate": [1, 1], "groups": 1, "activation": "linear", "use_bias": false, "bias_initializer": {"class_name": "Zeros", "config": {}}, "bias_regularizer": null, "activity_regularizer": null, "bias_constraint": null, "depth_multiplier": 1, "depthwise_initializer": {"class_name": "VarianceScaling", "config": {"scale": 2.0, "mode": "fan_out", "distribution": "truncated_normal", "seed": null}, "shared_object_id": 1}, "depthwise_regularizer": null, "depthwise_constraint": null}, "name": "stack_5_block3_MB_dw_", "inbound_nodes": [[["stack_5_block3_sortcut_swish", 0, 0, {}]]]}, {"class_name": "BatchNormalization", "config": {"name": "stack_5_block3_MB_dw_bn", "trainable": true, "dtype": "float32", "axis": [3], "momentum": 0.9, "epsilon": 0.001, "center": true, "scale": true, "beta_initializer": {"class_name": "Zeros", "config": {}}, "gamma_initializer": {"class_name": "Ones", "config": {}}, "moving_mean_initializer": {"class_name": "Zeros", "config": {}}, "moving_variance_initializer": {"class_name": "Ones", "config": {}}, "beta_regularizer": null, "gamma_regularizer": null, "beta_constraint": null, "gamma_constraint": null}, "name": "stack_5_block3_MB_dw_bn", "inbound_nodes": [[["stack_5_block3_MB_dw_", 0, 0, {}]]]}, {"class_name": "Activation", "config": {"name": "stack_5_block3_MB_dw_swish", "trainable": true, "dtype": "float32", "activation": "swish"}, "name": "stack_5_block3_MB_dw_swish", "inbound_nodes": [[["stack_5_block3_MB_dw_bn", 0, 0, {}]]]}, {"class_name": "TensorFlowOpLayer", "config": {"name": "Mean_11", "trainable": true, "dtype": "float32", "node_def": {"name": "Mean_11", "op": "Mean", "input": ["stack_5_block3_MB_dw_swish/IdentityN", "Mean_11/reduction_indices"], "attr": {"T": {"type": "DT_FLOAT"}, "Tidx": {"type": "DT_INT32"}, "keep_dims": {"b": true}}}, "constants": {"1": [1, 2]}}, "name": "tf_op_layer_Mean_11", "inbound_nodes": [[["stack_5_block3_MB_dw_swish", 0, 0, {}]]]}, {"class_name": "Conv2D", "config": {"name": "stack_5_block3_se_1_conv", "trainable": true, "dtype": "float32", "filters": 48, "kernel_size": [1, 1], "strides": [1, 1], "padding": "valid", "data_format": "channels_last", "dilation_rate": [1, 1], "groups": 1, "activation": "linear", "use_bias": true, "kernel_initializer": {"class_name": "VarianceScaling", "config": {"scale": 2.0, "mode": "fan_out", "distribution": "truncated_normal", "seed": null}, "shared_object_id": 1}, "bias_initializer": {"class_name": "Zeros", "config": {}}, "kernel_regularizer": null, "bias_regularizer": null, "activity_regularizer": null, "kernel_constraint": null, "bias_constraint": null}, "name": "stack_5_block3_se_1_conv", "inbound_nodes": [[["tf_op_layer_Mean_11", 0, 0, {}]]]}, {"class_name": "Activation", "config": {"name": "activation_22", "trainable": true, "dtype": "float32", "activation": "swish"}, "name": "activation_22", "inbound_nodes": [[["stack_5_block3_se_1_conv", 0, 0, {}]]]}, {"class_name": "Conv2D", "config": {"name": "stack_5_block3_se_2_conv", "trainable": true, "dtype": "float32", "filters": 1152, "kernel_size": [1, 1], "strides": [1, 1], "padding": "valid", "data_format": "channels_last", "dilation_rate": [1, 1], "groups": 1, "activation": "linear", "use_bias": true, "kernel_initializer": {"class_name": "VarianceScaling", "config": {"scale": 2.0, "mode": "fan_out", "distribution": "truncated_normal", "seed": null}, "shared_object_id": 1}, "bias_initializer": {"class_name": "Zeros", "config": {}}, "kernel_regularizer": null, "bias_regularizer": null, "activity_regularizer": null, "kernel_constraint": null, "bias_constraint": null}, "name": "stack_5_block3_se_2_conv", "inbound_nodes": [[["activation_22", 0, 0, {}]]]}, {"class_name": "Activation", "config": {"name": "activation_23", "trainable": true, "dtype": "float32", "activation": "sigmoid"}, "name": "activation_23", "inbound_nodes": [[["stack_5_block3_se_2_conv", 0, 0, {}]]]}, {"class_name": "Multiply", "config": {"name": "multiply_11", "trainable": true, "dtype": "float32"}, "name": "multiply_11", "inbound_nodes": [[["stack_5_block3_MB_dw_swish", 0, 0, {}], ["activation_23", 0, 0, {}]]]}, {"class_name": "Conv2D", "config": {"name": "stack_5_block3_MB_pw_conv", "trainable": true, "dtype": "float32", "filters": 192, "kernel_size": [1, 1], "strides": [1, 1], "padding": "valid", "data_format": "channels_last", "dilation_rate": [1, 1], "groups": 1, "activation": "linear", "use_bias": false, "kernel_initializer": {"class_name": "VarianceScaling", "config": {"scale": 2.0, "mode": "fan_out", "distribution": "truncated_normal", "seed": null}, "shared_object_id": 1}, "bias_initializer": {"class_name": "Zeros", "config": {}}, "kernel_regularizer": null, "bias_regularizer": null, "activity_regularizer": null, "kernel_constraint": null, "bias_constraint": null}, "name": "stack_5_block3_MB_pw_conv", "inbound_nodes": [[["multiply_11", 0, 0, {}]]]}, {"class_name": "BatchNormalization", "config": {"name": "stack_5_block3_MB_pw_bn", "trainable": true, "dtype": "float32", "axis": [3], "momentum": 0.9, "epsilon": 0.001, "center": true, "scale": true, "beta_initializer": {"class_name": "Zeros", "config": {}}, "gamma_initializer": {"class_name": "Ones", "config": {}}, "moving_mean_initializer": {"class_name": "Zeros", "config": {}}, "moving_variance_initializer": {"class_name": "Ones", "config": {}}, "beta_regularizer": null, "gamma_regularizer": null, "beta_constraint": null, "gamma_constraint": null}, "name": "stack_5_block3_MB_pw_bn", "inbound_nodes": [[["stack_5_block3_MB_pw_conv", 0, 0, {}]]]}, {"class_name": "Add", "config": {"name": "add_10", "trainable": true, "dtype": "float32"}, "name": "add_10", "inbound_nodes": [[["add_9", 0, 0, {}], ["stack_5_block3_MB_pw_bn", 0, 0, {}]]]}, {"class_name": "Conv2D", "config": {"name": "stack_5_block4_sortcut_conv", "trainable": true, "dtype": "float32", "filters": 1152, "kernel_size": [1, 1], "strides": [1, 1], "padding": "valid", "data_format": "channels_last", "dilation_rate": [1, 1], "groups": 1, "activation": "linear", "use_bias": false, "kernel_initializer": {"class_name": "VarianceScaling", "config": {"scale": 2.0, "mode": "fan_out", "distribution": "truncated_normal", "seed": null}, "shared_object_id": 1}, "bias_initializer": {"class_name": "Zeros", "config": {}}, "kernel_regularizer": null, "bias_regularizer": null, "activity_regularizer": null, "kernel_constraint": null, "bias_constraint": null}, "name": "stack_5_block4_sortcut_conv", "inbound_nodes": [[["add_10", 0, 0, {}]]]}, {"class_name": "BatchNormalization", "config": {"name": "stack_5_block4_sortcut_bn", "trainable": true, "dtype": "float32", "axis": [3], "momentum": 0.9, "epsilon": 0.001, "center": true, "scale": true, "beta_initializer": {"class_name": "Zeros", "config": {}}, "gamma_initializer": {"class_name": "Ones", "config": {}}, "moving_mean_initializer": {"class_name": "Zeros", "config": {}}, "moving_variance_initializer": {"class_name": "Ones", "config": {}}, "beta_regularizer": null, "gamma_regularizer": null, "beta_constraint": null, "gamma_constraint": null}, "name": "stack_5_block4_sortcut_bn", "inbound_nodes": [[["stack_5_block4_sortcut_conv", 0, 0, {}]]]}, {"class_name": "Activation", "config": {"name": "stack_5_block4_sortcut_swish", "trainable": true, "dtype": "float32", "activation": "swish"}, "name": "stack_5_block4_sortcut_swish", "inbound_nodes": [[["stack_5_block4_sortcut_bn", 0, 0, {}]]]}, {"class_name": "DepthwiseConv2D", "config": {"name": "stack_5_block4_MB_dw_", "trainable": true, "dtype": "float32", "kernel_size": [3, 3], "strides": [1, 1], "padding": "same", "data_format": "channels_last", "dilation_rate": [1, 1], "groups": 1, "activation": "linear", "use_bias": false, "bias_initializer": {"class_name": "Zeros", "config": {}}, "bias_regularizer": null, "activity_regularizer": null, "bias_constraint": null, "depth_multiplier": 1, "depthwise_initializer": {"class_name": "VarianceScaling", "config": {"scale": 2.0, "mode": "fan_out", "distribution": "truncated_normal", "seed": null}, "shared_object_id": 1}, "depthwise_regularizer": null, "depthwise_constraint": null}, "name": "stack_5_block4_MB_dw_", "inbound_nodes": [[["stack_5_block4_sortcut_swish", 0, 0, {}]]]}, {"class_name": "BatchNormalization", "config": {"name": "stack_5_block4_MB_dw_bn", "trainable": true, "dtype": "float32", "axis": [3], "momentum": 0.9, "epsilon": 0.001, "center": true, "scale": true, "beta_initializer": {"class_name": "Zeros", "config": {}}, "gamma_initializer": {"class_name": "Ones", "config": {}}, "moving_mean_initializer": {"class_name": "Zeros", "config": {}}, "moving_variance_initializer": {"class_name": "Ones", "config": {}}, "beta_regularizer": null, "gamma_regularizer": null, "beta_constraint": null, "gamma_constraint": null}, "name": "stack_5_block4_MB_dw_bn", "inbound_nodes": [[["stack_5_block4_MB_dw_", 0, 0, {}]]]}, {"class_name": "Activation", "config": {"name": "stack_5_block4_MB_dw_swish", "trainable": true, "dtype": "float32", "activation": "swish"}, "name": "stack_5_block4_MB_dw_swish", "inbound_nodes": [[["stack_5_block4_MB_dw_bn", 0, 0, {}]]]}, {"class_name": "TensorFlowOpLayer", "config": {"name": "Mean_12", "trainable": true, "dtype": "float32", "node_def": {"name": "Mean_12", "op": "Mean", "input": ["stack_5_block4_MB_dw_swish/IdentityN", "Mean_12/reduction_indices"], "attr": {"T": {"type": "DT_FLOAT"}, "Tidx": {"type": "DT_INT32"}, "keep_dims": {"b": true}}}, "constants": {"1": [1, 2]}}, "name": "tf_op_layer_Mean_12", "inbound_nodes": [[["stack_5_block4_MB_dw_swish", 0, 0, {}]]]}, {"class_name": "Conv2D", "config": {"name": "stack_5_block4_se_1_conv", "trainable": true, "dtype": "float32", "filters": 48, "kernel_size": [1, 1], "strides": [1, 1], "padding": "valid", "data_format": "channels_last", "dilation_rate": [1, 1], "groups": 1, "activation": "linear", "use_bias": true, "kernel_initializer": {"class_name": "VarianceScaling", "config": {"scale": 2.0, "mode": "fan_out", "distribution": "truncated_normal", "seed": null}, "shared_object_id": 1}, "bias_initializer": {"class_name": "Zeros", "config": {}}, "kernel_regularizer": null, "bias_regularizer": null, "activity_regularizer": null, "kernel_constraint": null, "bias_constraint": null}, "name": "stack_5_block4_se_1_conv", "inbound_nodes": [[["tf_op_layer_Mean_12", 0, 0, {}]]]}, {"class_name": "Activation", "config": {"name": "activation_24", "trainable": true, "dtype": "float32", "activation": "swish"}, "name": "activation_24", "inbound_nodes": [[["stack_5_block4_se_1_conv", 0, 0, {}]]]}, {"class_name": "Conv2D", "config": {"name": "stack_5_block4_se_2_conv", "trainable": true, "dtype": "float32", "filters": 1152, "kernel_size": [1, 1], "strides": [1, 1], "padding": "valid", "data_format": "channels_last", "dilation_rate": [1, 1], "groups": 1, "activation": "linear", "use_bias": true, "kernel_initializer": {"class_name": "VarianceScaling", "config": {"scale": 2.0, "mode": "fan_out", "distribution": "truncated_normal", "seed": null}, "shared_object_id": 1}, "bias_initializer": {"class_name": "Zeros", "config": {}}, "kernel_regularizer": null, "bias_regularizer": null, "activity_regularizer": null, "kernel_constraint": null, "bias_constraint": null}, "name": "stack_5_block4_se_2_conv", "inbound_nodes": [[["activation_24", 0, 0, {}]]]}, {"class_name": "Activation", "config": {"name": "activation_25", "trainable": true, "dtype": "float32", "activation": "sigmoid"}, "name": "activation_25", "inbound_nodes": [[["stack_5_block4_se_2_conv", 0, 0, {}]]]}, {"class_name": "Multiply", "config": {"name": "multiply_12", "trainable": true, "dtype": "float32"}, "name": "multiply_12", "inbound_nodes": [[["stack_5_block4_MB_dw_swish", 0, 0, {}], ["activation_25", 0, 0, {}]]]}, {"class_name": "Conv2D", "config": {"name": "stack_5_block4_MB_pw_conv", "trainable": true, "dtype": "float32", "filters": 192, "kernel_size": [1, 1], "strides": [1, 1], "padding": "valid", "data_format": "channels_last", "dilation_rate": [1, 1], "groups": 1, "activation": "linear", "use_bias": false, "kernel_initializer": {"class_name": "VarianceScaling", "config": {"scale": 2.0, "mode": "fan_out", "distribution": "truncated_normal", "seed": null}, "shared_object_id": 1}, "bias_initializer": {"class_name": "Zeros", "config": {}}, "kernel_regularizer": null, "bias_regularizer": null, "activity_regularizer": null, "kernel_constraint": null, "bias_constraint": null}, "name": "stack_5_block4_MB_pw_conv", "inbound_nodes": [[["multiply_12", 0, 0, {}]]]}, {"class_name": "BatchNormalization", "config": {"name": "stack_5_block4_MB_pw_bn", "trainable": true, "dtype": "float32", "axis": [3], "momentum": 0.9, "epsilon": 0.001, "center": true, "scale": true, "beta_initializer": {"class_name": "Zeros", "config": {}}, "gamma_initializer": {"class_name": "Ones", "config": {}}, "moving_mean_initializer": {"class_name": "Zeros", "config": {}}, "moving_variance_initializer": {"class_name": "Ones", "config": {}}, "beta_regularizer": null, "gamma_regularizer": null, "beta_constraint": null, "gamma_constraint": null}, "name": "stack_5_block4_MB_pw_bn", "inbound_nodes": [[["stack_5_block4_MB_pw_conv", 0, 0, {}]]]}, {"class_name": "Add", "config": {"name": "add_11", "trainable": true, "dtype": "float32"}, "name": "add_11", "inbound_nodes": [[["add_10", 0, 0, {}], ["stack_5_block4_MB_pw_bn", 0, 0, {}]]]}, {"class_name": "Conv2D", "config": {"name": "stack_5_block5_sortcut_conv", "trainable": true, "dtype": "float32", "filters": 1152, "kernel_size": [1, 1], "strides": [1, 1], "padding": "valid", "data_format": "channels_last", "dilation_rate": [1, 1], "groups": 1, "activation": "linear", "use_bias": false, "kernel_initializer": {"class_name": "VarianceScaling", "config": {"scale": 2.0, "mode": "fan_out", "distribution": "truncated_normal", "seed": null}, "shared_object_id": 1}, "bias_initializer": {"class_name": "Zeros", "config": {}}, "kernel_regularizer": null, "bias_regularizer": null, "activity_regularizer": null, "kernel_constraint": null, "bias_constraint": null}, "name": "stack_5_block5_sortcut_conv", "inbound_nodes": [[["add_11", 0, 0, {}]]]}, {"class_name": "BatchNormalization", "config": {"name": "stack_5_block5_sortcut_bn", "trainable": true, "dtype": "float32", "axis": [3], "momentum": 0.9, "epsilon": 0.001, "center": true, "scale": true, "beta_initializer": {"class_name": "Zeros", "config": {}}, "gamma_initializer": {"class_name": "Ones", "config": {}}, "moving_mean_initializer": {"class_name": "Zeros", "config": {}}, "moving_variance_initializer": {"class_name": "Ones", "config": {}}, "beta_regularizer": null, "gamma_regularizer": null, "beta_constraint": null, "gamma_constraint": null}, "name": "stack_5_block5_sortcut_bn", "inbound_nodes": [[["stack_5_block5_sortcut_conv", 0, 0, {}]]]}, {"class_name": "Activation", "config": {"name": "stack_5_block5_sortcut_swish", "trainable": true, "dtype": "float32", "activation": "swish"}, "name": "stack_5_block5_sortcut_swish", "inbound_nodes": [[["stack_5_block5_sortcut_bn", 0, 0, {}]]]}, {"class_name": "DepthwiseConv2D", "config": {"name": "stack_5_block5_MB_dw_", "trainable": true, "dtype": "float32", "kernel_size": [3, 3], "strides": [1, 1], "padding": "same", "data_format": "channels_last", "dilation_rate": [1, 1], "groups": 1, "activation": "linear", "use_bias": false, "bias_initializer": {"class_name": "Zeros", "config": {}}, "bias_regularizer": null, "activity_regularizer": null, "bias_constraint": null, "depth_multiplier": 1, "depthwise_initializer": {"class_name": "VarianceScaling", "config": {"scale": 2.0, "mode": "fan_out", "distribution": "truncated_normal", "seed": null}, "shared_object_id": 1}, "depthwise_regularizer": null, "depthwise_constraint": null}, "name": "stack_5_block5_MB_dw_", "inbound_nodes": [[["stack_5_block5_sortcut_swish", 0, 0, {}]]]}, {"class_name": "BatchNormalization", "config": {"name": "stack_5_block5_MB_dw_bn", "trainable": true, "dtype": "float32", "axis": [3], "momentum": 0.9, "epsilon": 0.001, "center": true, "scale": true, "beta_initializer": {"class_name": "Zeros", "config": {}}, "gamma_initializer": {"class_name": "Ones", "config": {}}, "moving_mean_initializer": {"class_name": "Zeros", "config": {}}, "moving_variance_initializer": {"class_name": "Ones", "config": {}}, "beta_regularizer": null, "gamma_regularizer": null, "beta_constraint": null, "gamma_constraint": null}, "name": "stack_5_block5_MB_dw_bn", "inbound_nodes": [[["stack_5_block5_MB_dw_", 0, 0, {}]]]}, {"class_name": "Activation", "config": {"name": "stack_5_block5_MB_dw_swish", "trainable": true, "dtype": "float32", "activation": "swish"}, "name": "stack_5_block5_MB_dw_swish", "inbound_nodes": [[["stack_5_block5_MB_dw_bn", 0, 0, {}]]]}, {"class_name": "TensorFlowOpLayer", "config": {"name": "Mean_13", "trainable": true, "dtype": "float32", "node_def": {"name": "Mean_13", "op": "Mean", "input": ["stack_5_block5_MB_dw_swish/IdentityN", "Mean_13/reduction_indices"], "attr": {"Tidx": {"type": "DT_INT32"}, "keep_dims": {"b": true}, "T": {"type": "DT_FLOAT"}}}, "constants": {"1": [1, 2]}}, "name": "tf_op_layer_Mean_13", "inbound_nodes": [[["stack_5_block5_MB_dw_swish", 0, 0, {}]]]}, {"class_name": "Conv2D", "config": {"name": "stack_5_block5_se_1_conv", "trainable": true, "dtype": "float32", "filters": 48, "kernel_size": [1, 1], "strides": [1, 1], "padding": "valid", "data_format": "channels_last", "dilation_rate": [1, 1], "groups": 1, "activation": "linear", "use_bias": true, "kernel_initializer": {"class_name": "VarianceScaling", "config": {"scale": 2.0, "mode": "fan_out", "distribution": "truncated_normal", "seed": null}, "shared_object_id": 1}, "bias_initializer": {"class_name": "Zeros", "config": {}}, "kernel_regularizer": null, "bias_regularizer": null, "activity_regularizer": null, "kernel_constraint": null, "bias_constraint": null}, "name": "stack_5_block5_se_1_conv", "inbound_nodes": [[["tf_op_layer_Mean_13", 0, 0, {}]]]}, {"class_name": "Activation", "config": {"name": "activation_26", "trainable": true, "dtype": "float32", "activation": "swish"}, "name": "activation_26", "inbound_nodes": [[["stack_5_block5_se_1_conv", 0, 0, {}]]]}, {"class_name": "Conv2D", "config": {"name": "stack_5_block5_se_2_conv", "trainable": true, "dtype": "float32", "filters": 1152, "kernel_size": [1, 1], "strides": [1, 1], "padding": "valid", "data_format": "channels_last", "dilation_rate": [1, 1], "groups": 1, "activation": "linear", "use_bias": true, "kernel_initializer": {"class_name": "VarianceScaling", "config": {"scale": 2.0, "mode": "fan_out", "distribution": "truncated_normal", "seed": null}, "shared_object_id": 1}, "bias_initializer": {"class_name": "Zeros", "config": {}}, "kernel_regularizer": null, "bias_regularizer": null, "activity_regularizer": null, "kernel_constraint": null, "bias_constraint": null}, "name": "stack_5_block5_se_2_conv", "inbound_nodes": [[["activation_26", 0, 0, {}]]]}, {"class_name": "Activation", "config": {"name": "activation_27", "trainable": true, "dtype": "float32", "activation": "sigmoid"}, "name": "activation_27", "inbound_nodes": [[["stack_5_block5_se_2_conv", 0, 0, {}]]]}, {"class_name": "Multiply", "config": {"name": "multiply_13", "trainable": true, "dtype": "float32"}, "name": "multiply_13", "inbound_nodes": [[["stack_5_block5_MB_dw_swish", 0, 0, {}], ["activation_27", 0, 0, {}]]]}, {"class_name": "Conv2D", "config": {"name": "stack_5_block5_MB_pw_conv", "trainable": true, "dtype": "float32", "filters": 192, "kernel_size": [1, 1], "strides": [1, 1], "padding": "valid", "data_format": "channels_last", "dilation_rate": [1, 1], "groups": 1, "activation": "linear", "use_bias": false, "kernel_initializer": {"class_name": "VarianceScaling", "config": {"scale": 2.0, "mode": "fan_out", "distribution": "truncated_normal", "seed": null}, "shared_object_id": 1}, "bias_initializer": {"class_name": "Zeros", "config": {}}, "kernel_regularizer": null, "bias_regularizer": null, "activity_regularizer": null, "kernel_constraint": null, "bias_constraint": null}, "name": "stack_5_block5_MB_pw_conv", "inbound_nodes": [[["multiply_13", 0, 0, {}]]]}, {"class_name": "BatchNormalization", "config": {"name": "stack_5_block5_MB_pw_bn", "trainable": true, "dtype": "float32", "axis": [3], "momentum": 0.9, "epsilon": 0.001, "center": true, "scale": true, "beta_initializer": {"class_name": "Zeros", "config": {}}, "gamma_initializer": {"class_name": "Ones", "config": {}}, "moving_mean_initializer": {"class_name": "Zeros", "config": {}}, "moving_variance_initializer": {"class_name": "Ones", "config": {}}, "beta_regularizer": null, "gamma_regularizer": null, "beta_constraint": null, "gamma_constraint": null}, "name": "stack_5_block5_MB_pw_bn", "inbound_nodes": [[["stack_5_block5_MB_pw_conv", 0, 0, {}]]]}, {"class_name": "Add", "config": {"name": "add_12", "trainable": true, "dtype": "float32"}, "name": "add_12", "inbound_nodes": [[["add_11", 0, 0, {}], ["stack_5_block5_MB_pw_bn", 0, 0, {}]]]}, {"class_name": "Conv2D", "config": {"name": "stack_5_block6_sortcut_conv", "trainable": true, "dtype": "float32", "filters": 1152, "kernel_size": [1, 1], "strides": [1, 1], "padding": "valid", "data_format": "channels_last", "dilation_rate": [1, 1], "groups": 1, "activation": "linear", "use_bias": false, "kernel_initializer": {"class_name": "VarianceScaling", "config": {"scale": 2.0, "mode": "fan_out", "distribution": "truncated_normal", "seed": null}, "shared_object_id": 1}, "bias_initializer": {"class_name": "Zeros", "config": {}}, "kernel_regularizer": null, "bias_regularizer": null, "activity_regularizer": null, "kernel_constraint": null, "bias_constraint": null}, "name": "stack_5_block6_sortcut_conv", "inbound_nodes": [[["add_12", 0, 0, {}]]]}, {"class_name": "BatchNormalization", "config": {"name": "stack_5_block6_sortcut_bn", "trainable": true, "dtype": "float32", "axis": [3], "momentum": 0.9, "epsilon": 0.001, "center": true, "scale": true, "beta_initializer": {"class_name": "Zeros", "config": {}}, "gamma_initializer": {"class_name": "Ones", "config": {}}, "moving_mean_initializer": {"class_name": "Zeros", "config": {}}, "moving_variance_initializer": {"class_name": "Ones", "config": {}}, "beta_regularizer": null, "gamma_regularizer": null, "beta_constraint": null, "gamma_constraint": null}, "name": "stack_5_block6_sortcut_bn", "inbound_nodes": [[["stack_5_block6_sortcut_conv", 0, 0, {}]]]}, {"class_name": "Activation", "config": {"name": "stack_5_block6_sortcut_swish", "trainable": true, "dtype": "float32", "activation": "swish"}, "name": "stack_5_block6_sortcut_swish", "inbound_nodes": [[["stack_5_block6_sortcut_bn", 0, 0, {}]]]}, {"class_name": "DepthwiseConv2D", "config": {"name": "stack_5_block6_MB_dw_", "trainable": true, "dtype": "float32", "kernel_size": [3, 3], "strides": [1, 1], "padding": "same", "data_format": "channels_last", "dilation_rate": [1, 1], "groups": 1, "activation": "linear", "use_bias": false, "bias_initializer": {"class_name": "Zeros", "config": {}}, "bias_regularizer": null, "activity_regularizer": null, "bias_constraint": null, "depth_multiplier": 1, "depthwise_initializer": {"class_name": "VarianceScaling", "config": {"scale": 2.0, "mode": "fan_out", "distribution": "truncated_normal", "seed": null}, "shared_object_id": 1}, "depthwise_regularizer": null, "depthwise_constraint": null}, "name": "stack_5_block6_MB_dw_", "inbound_nodes": [[["stack_5_block6_sortcut_swish", 0, 0, {}]]]}, {"class_name": "BatchNormalization", "config": {"name": "stack_5_block6_MB_dw_bn", "trainable": true, "dtype": "float32", "axis": [3], "momentum": 0.9, "epsilon": 0.001, "center": true, "scale": true, "beta_initializer": {"class_name": "Zeros", "config": {}}, "gamma_initializer": {"class_name": "Ones", "config": {}}, "moving_mean_initializer": {"class_name": "Zeros", "config": {}}, "moving_variance_initializer": {"class_name": "Ones", "config": {}}, "beta_regularizer": null, "gamma_regularizer": null, "beta_constraint": null, "gamma_constraint": null}, "name": "stack_5_block6_MB_dw_bn", "inbound_nodes": [[["stack_5_block6_MB_dw_", 0, 0, {}]]]}, {"class_name": "Activation", "config": {"name": "stack_5_block6_MB_dw_swish", "trainable": true, "dtype": "float32", "activation": "swish"}, "name": "stack_5_block6_MB_dw_swish", "inbound_nodes": [[["stack_5_block6_MB_dw_bn", 0, 0, {}]]]}, {"class_name": "TensorFlowOpLayer", "config": {"name": "Mean_14", "trainable": true, "dtype": "float32", "node_def": {"name": "Mean_14", "op": "Mean", "input": ["stack_5_block6_MB_dw_swish/IdentityN", "Mean_14/reduction_indices"], "attr": {"T": {"type": "DT_FLOAT"}, "keep_dims": {"b": true}, "Tidx": {"type": "DT_INT32"}}}, "constants": {"1": [1, 2]}}, "name": "tf_op_layer_Mean_14", "inbound_nodes": [[["stack_5_block6_MB_dw_swish", 0, 0, {}]]]}, {"class_name": "Conv2D", "config": {"name": "stack_5_block6_se_1_conv", "trainable": true, "dtype": "float32", "filters": 48, "kernel_size": [1, 1], "strides": [1, 1], "padding": "valid", "data_format": "channels_last", "dilation_rate": [1, 1], "groups": 1, "activation": "linear", "use_bias": true, "kernel_initializer": {"class_name": "VarianceScaling", "config": {"scale": 2.0, "mode": "fan_out", "distribution": "truncated_normal", "seed": null}, "shared_object_id": 1}, "bias_initializer": {"class_name": "Zeros", "config": {}}, "kernel_regularizer": null, "bias_regularizer": null, "activity_regularizer": null, "kernel_constraint": null, "bias_constraint": null}, "name": "stack_5_block6_se_1_conv", "inbound_nodes": [[["tf_op_layer_Mean_14", 0, 0, {}]]]}, {"class_name": "Activation", "config": {"name": "activation_28", "trainable": true, "dtype": "float32", "activation": "swish"}, "name": "activation_28", "inbound_nodes": [[["stack_5_block6_se_1_conv", 0, 0, {}]]]}, {"class_name": "Conv2D", "config": {"name": "stack_5_block6_se_2_conv", "trainable": true, "dtype": "float32", "filters": 1152, "kernel_size": [1, 1], "strides": [1, 1], "padding": "valid", "data_format": "channels_last", "dilation_rate": [1, 1], "groups": 1, "activation": "linear", "use_bias": true, "kernel_initializer": {"class_name": "VarianceScaling", "config": {"scale": 2.0, "mode": "fan_out", "distribution": "truncated_normal", "seed": null}, "shared_object_id": 1}, "bias_initializer": {"class_name": "Zeros", "config": {}}, "kernel_regularizer": null, "bias_regularizer": null, "activity_regularizer": null, "kernel_constraint": null, "bias_constraint": null}, "name": "stack_5_block6_se_2_conv", "inbound_nodes": [[["activation_28", 0, 0, {}]]]}, {"class_name": "Activation", "config": {"name": "activation_29", "trainable": true, "dtype": "float32", "activation": "sigmoid"}, "name": "activation_29", "inbound_nodes": [[["stack_5_block6_se_2_conv", 0, 0, {}]]]}, {"class_name": "Multiply", "config": {"name": "multiply_14", "trainable": true, "dtype": "float32"}, "name": "multiply_14", "inbound_nodes": [[["stack_5_block6_MB_dw_swish", 0, 0, {}], ["activation_29", 0, 0, {}]]]}, {"class_name": "Conv2D", "config": {"name": "stack_5_block6_MB_pw_conv", "trainable": true, "dtype": "float32", "filters": 192, "kernel_size": [1, 1], "strides": [1, 1], "padding": "valid", "data_format": "channels_last", "dilation_rate": [1, 1], "groups": 1, "activation": "linear", "use_bias": false, "kernel_initializer": {"class_name": "VarianceScaling", "config": {"scale": 2.0, "mode": "fan_out", "distribution": "truncated_normal", "seed": null}, "shared_object_id": 1}, "bias_initializer": {"class_name": "Zeros", "config": {}}, "kernel_regularizer": null, "bias_regularizer": null, "activity_regularizer": null, "kernel_constraint": null, "bias_constraint": null}, "name": "stack_5_block6_MB_pw_conv", "inbound_nodes": [[["multiply_14", 0, 0, {}]]]}, {"class_name": "BatchNormalization", "config": {"name": "stack_5_block6_MB_pw_bn", "trainable": true, "dtype": "float32", "axis": [3], "momentum": 0.9, "epsilon": 0.001, "center": true, "scale": true, "beta_initializer": {"class_name": "Zeros", "config": {}}, "gamma_initializer": {"class_name": "Ones", "config": {}}, "moving_mean_initializer": {"class_name": "Zeros", "config": {}}, "moving_variance_initializer": {"class_name": "Ones", "config": {}}, "beta_regularizer": null, "gamma_regularizer": null, "beta_constraint": null, "gamma_constraint": null}, "name": "stack_5_block6_MB_pw_bn", "inbound_nodes": [[["stack_5_block6_MB_pw_conv", 0, 0, {}]]]}, {"class_name": "Add", "config": {"name": "add_13", "trainable": true, "dtype": "float32"}, "name": "add_13", "inbound_nodes": [[["add_12", 0, 0, {}], ["stack_5_block6_MB_pw_bn", 0, 0, {}]]]}, {"class_name": "Conv2D", "config": {"name": "stack_5_block7_sortcut_conv", "trainable": true, "dtype": "float32", "filters": 1152, "kernel_size": [1, 1], "strides": [1, 1], "padding": "valid", "data_format": "channels_last", "dilation_rate": [1, 1], "groups": 1, "activation": "linear", "use_bias": false, "kernel_initializer": {"class_name": "VarianceScaling", "config": {"scale": 2.0, "mode": "fan_out", "distribution": "truncated_normal", "seed": null}, "shared_object_id": 1}, "bias_initializer": {"class_name": "Zeros", "config": {}}, "kernel_regularizer": null, "bias_regularizer": null, "activity_regularizer": null, "kernel_constraint": null, "bias_constraint": null}, "name": "stack_5_block7_sortcut_conv", "inbound_nodes": [[["add_13", 0, 0, {}]]]}, {"class_name": "BatchNormalization", "config": {"name": "stack_5_block7_sortcut_bn", "trainable": true, "dtype": "float32", "axis": [3], "momentum": 0.9, "epsilon": 0.001, "center": true, "scale": true, "beta_initializer": {"class_name": "Zeros", "config": {}}, "gamma_initializer": {"class_name": "Ones", "config": {}}, "moving_mean_initializer": {"class_name": "Zeros", "config": {}}, "moving_variance_initializer": {"class_name": "Ones", "config": {}}, "beta_regularizer": null, "gamma_regularizer": null, "beta_constraint": null, "gamma_constraint": null}, "name": "stack_5_block7_sortcut_bn", "inbound_nodes": [[["stack_5_block7_sortcut_conv", 0, 0, {}]]]}, {"class_name": "Activation", "config": {"name": "stack_5_block7_sortcut_swish", "trainable": true, "dtype": "float32", "activation": "swish"}, "name": "stack_5_block7_sortcut_swish", "inbound_nodes": [[["stack_5_block7_sortcut_bn", 0, 0, {}]]]}, {"class_name": "DepthwiseConv2D", "config": {"name": "stack_5_block7_MB_dw_", "trainable": true, "dtype": "float32", "kernel_size": [3, 3], "strides": [1, 1], "padding": "same", "data_format": "channels_last", "dilation_rate": [1, 1], "groups": 1, "activation": "linear", "use_bias": false, "bias_initializer": {"class_name": "Zeros", "config": {}}, "bias_regularizer": null, "activity_regularizer": null, "bias_constraint": null, "depth_multiplier": 1, "depthwise_initializer": {"class_name": "VarianceScaling", "config": {"scale": 2.0, "mode": "fan_out", "distribution": "truncated_normal", "seed": null}, "shared_object_id": 1}, "depthwise_regularizer": null, "depthwise_constraint": null}, "name": "stack_5_block7_MB_dw_", "inbound_nodes": [[["stack_5_block7_sortcut_swish", 0, 0, {}]]]}, {"class_name": "BatchNormalization", "config": {"name": "stack_5_block7_MB_dw_bn", "trainable": true, "dtype": "float32", "axis": [3], "momentum": 0.9, "epsilon": 0.001, "center": true, "scale": true, "beta_initializer": {"class_name": "Zeros", "config": {}}, "gamma_initializer": {"class_name": "Ones", "config": {}}, "moving_mean_initializer": {"class_name": "Zeros", "config": {}}, "moving_variance_initializer": {"class_name": "Ones", "config": {}}, "beta_regularizer": null, "gamma_regularizer": null, "beta_constraint": null, "gamma_constraint": null}, "name": "stack_5_block7_MB_dw_bn", "inbound_nodes": [[["stack_5_block7_MB_dw_", 0, 0, {}]]]}, {"class_name": "Activation", "config": {"name": "stack_5_block7_MB_dw_swish", "trainable": true, "dtype": "float32", "activation": "swish"}, "name": "stack_5_block7_MB_dw_swish", "inbound_nodes": [[["stack_5_block7_MB_dw_bn", 0, 0, {}]]]}, {"class_name": "TensorFlowOpLayer", "config": {"name": "Mean_15", "trainable": true, "dtype": "float32", "node_def": {"name": "Mean_15", "op": "Mean", "input": ["stack_5_block7_MB_dw_swish/IdentityN", "Mean_15/reduction_indices"], "attr": {"keep_dims": {"b": true}, "T": {"type": "DT_FLOAT"}, "Tidx": {"type": "DT_INT32"}}}, "constants": {"1": [1, 2]}}, "name": "tf_op_layer_Mean_15", "inbound_nodes": [[["stack_5_block7_MB_dw_swish", 0, 0, {}]]]}, {"class_name": "Conv2D", "config": {"name": "stack_5_block7_se_1_conv", "trainable": true, "dtype": "float32", "filters": 48, "kernel_size": [1, 1], "strides": [1, 1], "padding": "valid", "data_format": "channels_last", "dilation_rate": [1, 1], "groups": 1, "activation": "linear", "use_bias": true, "kernel_initializer": {"class_name": "VarianceScaling", "config": {"scale": 2.0, "mode": "fan_out", "distribution": "truncated_normal", "seed": null}, "shared_object_id": 1}, "bias_initializer": {"class_name": "Zeros", "config": {}}, "kernel_regularizer": null, "bias_regularizer": null, "activity_regularizer": null, "kernel_constraint": null, "bias_constraint": null}, "name": "stack_5_block7_se_1_conv", "inbound_nodes": [[["tf_op_layer_Mean_15", 0, 0, {}]]]}, {"class_name": "Activation", "config": {"name": "activation_30", "trainable": true, "dtype": "float32", "activation": "swish"}, "name": "activation_30", "inbound_nodes": [[["stack_5_block7_se_1_conv", 0, 0, {}]]]}, {"class_name": "Conv2D", "config": {"name": "stack_5_block7_se_2_conv", "trainable": true, "dtype": "float32", "filters": 1152, "kernel_size": [1, 1], "strides": [1, 1], "padding": "valid", "data_format": "channels_last", "dilation_rate": [1, 1], "groups": 1, "activation": "linear", "use_bias": true, "kernel_initializer": {"class_name": "VarianceScaling", "config": {"scale": 2.0, "mode": "fan_out", "distribution": "truncated_normal", "seed": null}, "shared_object_id": 1}, "bias_initializer": {"class_name": "Zeros", "config": {}}, "kernel_regularizer": null, "bias_regularizer": null, "activity_regularizer": null, "kernel_constraint": null, "bias_constraint": null}, "name": "stack_5_block7_se_2_conv", "inbound_nodes": [[["activation_30", 0, 0, {}]]]}, {"class_name": "Activation", "config": {"name": "activation_31", "trainable": true, "dtype": "float32", "activation": "sigmoid"}, "name": "activation_31", "inbound_nodes": [[["stack_5_block7_se_2_conv", 0, 0, {}]]]}, {"class_name": "Multiply", "config": {"name": "multiply_15", "trainable": true, "dtype": "float32"}, "name": "multiply_15", "inbound_nodes": [[["stack_5_block7_MB_dw_swish", 0, 0, {}], ["activation_31", 0, 0, {}]]]}, {"class_name": "Conv2D", "config": {"name": "stack_5_block7_MB_pw_conv", "trainable": true, "dtype": "float32", "filters": 192, "kernel_size": [1, 1], "strides": [1, 1], "padding": "valid", "data_format": "channels_last", "dilation_rate": [1, 1], "groups": 1, "activation": "linear", "use_bias": false, "kernel_initializer": {"class_name": "VarianceScaling", "config": {"scale": 2.0, "mode": "fan_out", "distribution": "truncated_normal", "seed": null}, "shared_object_id": 1}, "bias_initializer": {"class_name": "Zeros", "config": {}}, "kernel_regularizer": null, "bias_regularizer": null, "activity_regularizer": null, "kernel_constraint": null, "bias_constraint": null}, "name": "stack_5_block7_MB_pw_conv", "inbound_nodes": [[["multiply_15", 0, 0, {}]]]}, {"class_name": "BatchNormalization", "config": {"name": "stack_5_block7_MB_pw_bn", "trainable": true, "dtype": "float32", "axis": [3], "momentum": 0.9, "epsilon": 0.001, "center": true, "scale": true, "beta_initializer": {"class_name": "Zeros", "config": {}}, "gamma_initializer": {"class_name": "Ones", "config": {}}, "moving_mean_initializer": {"class_name": "Zeros", "config": {}}, "moving_variance_initializer": {"class_name": "Ones", "config": {}}, "beta_regularizer": null, "gamma_regularizer": null, "beta_constraint": null, "gamma_constraint": null}, "name": "stack_5_block7_MB_pw_bn", "inbound_nodes": [[["stack_5_block7_MB_pw_conv", 0, 0, {}]]]}, {"class_name": "Add", "config": {"name": "add_14", "trainable": true, "dtype": "float32"}, "name": "add_14", "inbound_nodes": [[["add_13", 0, 0, {}], ["stack_5_block7_MB_pw_bn", 0, 0, {}]]]}, {"class_name": "Conv2D", "config": {"name": "conv2d", "trainable": true, "dtype": "float32", "filters": 64, "kernel_size": [1, 1], "strides": [1, 1], "padding": "same", "data_format": "channels_last", "dilation_rate": [1, 1], "groups": 1, "activation": "linear", "use_bias": false, "kernel_initializer": {"class_name": "GlorotUniform", "config": {"seed": null}}, "bias_initializer": {"class_name": "Zeros", "config": {}}, "kernel_regularizer": null, "bias_regularizer": null, "activity_regularizer": null, "kernel_constraint": null, "bias_constraint": null}, "name": "conv2d", "inbound_nodes": [[["add_14", 0, 0, {}]]]}, {"class_name": "BatchNormalization", "config": {"name": "batch_normalization", "trainable": true, "dtype": "float32", "axis": [3], "momentum": 0.99, "epsilon": 0.001, "center": true, "scale": true, "beta_initializer": {"class_name": "Zeros", "config": {}}, "gamma_initializer": {"class_name": "Ones", "config": {}}, "moving_mean_initializer": {"class_name": "Zeros", "config": {}}, "moving_variance_initializer": {"class_name": "Ones", "config": {}}, "beta_regularizer": null, "gamma_regularizer": null, "beta_constraint": null, "gamma_constraint": null}, "name": "batch_normalization", "inbound_nodes": [[["conv2d", 0, 0, {}]]]}, {"class_name": "Activation", "config": {"name": "activation_32", "trainable": true, "dtype": "float32", "activation": "swish"}, "name": "activation_32", "inbound_nodes": [[["batch_normalization", 0, 0, {}]]]}, {"class_name": "SeparableConv2D", "config": {"name": "separable_conv2d", "trainable": true, "dtype": "float32", "filters": 128, "kernel_size": [3, 3], "strides": [2, 2], "padding": "same", "data_format": "channels_last", "dilation_rate": [1, 1], "groups": 1, "activation": "linear", "use_bias": false, "kernel_initializer": {"class_name": "GlorotUniform", "config": {"seed": null}}, "bias_initializer": {"class_name": "Zeros", "config": {}, "shared_object_id": 616}, "kernel_regularizer": null, "bias_regularizer": null, "activity_regularizer": null, "kernel_constraint": null, "bias_constraint": null, "depth_multiplier": 1, "depthwise_initializer": {"class_name": "GlorotUniform", "config": {"seed": null}}, "pointwise_initializer": {"class_name": "GlorotUniform", "config": {"seed": null}}, "depthwise_regularizer": null, "pointwise_regularizer": null, "depthwise_constraint": null, "pointwise_constraint": null}, "name": "separable_conv2d", "inbound_nodes": [[["activation_32", 0, 0, {}]]]}, {"class_name": "BatchNormalization", "config": {"name": "batch_normalization_1", "trainable": true, "dtype": "float32", "axis": [3], "momentum": 0.99, "epsilon": 0.001, "center": true, "scale": true, "beta_initializer": {"class_name": "Zeros", "config": {}}, "gamma_initializer": {"class_name": "Ones", "config": {}}, "moving_mean_initializer": {"class_name": "Zeros", "config": {}}, "moving_variance_initializer": {"class_name": "Ones", "config": {}}, "beta_regularizer": null, "gamma_regularizer": null, "beta_constraint": null, "gamma_constraint": null}, "name": "batch_normalization_1", "inbound_nodes": [[["separable_conv2d", 0, 0, {}]]]}, {"class_name": "Activation", "config": {"name": "activation_33", "trainable": true, "dtype": "float32", "activation": "swish"}, "name": "activation_33", "inbound_nodes": [[["batch_normalization_1", 0, 0, {}]]]}, {"class_name": "Conv2D", "config": {"name": "conv2d_1", "trainable": true, "dtype": "float32", "filters": 64, "kernel_size": [1, 1], "strides": [1, 1], "padding": "same", "data_format": "channels_last", "dilation_rate": [1, 1], "groups": 1, "activation": "linear", "use_bias": false, "kernel_initializer": {"class_name": "GlorotUniform", "config": {"seed": null}}, "bias_initializer": {"class_name": "Zeros", "config": {}}, "kernel_regularizer": null, "bias_regularizer": null, "activity_regularizer": null, "kernel_constraint": null, "bias_constraint": null}, "name": "conv2d_1", "inbound_nodes": [[["activation_33", 0, 0, {}]]]}, {"class_name": "BatchNormalization", "config": {"name": "batch_normalization_2", "trainable": true, "dtype": "float32", "axis": [3], "momentum": 0.99, "epsilon": 0.001, "center": true, "scale": true, "beta_initializer": {"class_name": "Zeros", "config": {}}, "gamma_initializer": {"class_name": "Ones", "config": {}}, "moving_mean_initializer": {"class_name": "Zeros", "config": {}}, "moving_variance_initializer": {"class_name": "Ones", "config": {}}, "beta_regularizer": null, "gamma_regularizer": null, "beta_constraint": null, "gamma_constraint": null}, "name": "batch_normalization_2", "inbound_nodes": [[["conv2d_1", 0, 0, {}]]]}, {"class_name": "Activation", "config": {"name": "activation_34", "trainable": true, "dtype": "float32", "activation": "swish"}, "name": "activation_34", "inbound_nodes": [[["batch_normalization_2", 0, 0, {}]]]}, {"class_name": "SeparableConv2D", "config": {"name": "separable_conv2d_1", "trainable": true, "dtype": "float32", "filters": 128, "kernel_size": [3, 3], "strides": [1, 1], "padding": "valid", "data_format": "channels_last", "dilation_rate": [1, 1], "groups": 1, "activation": "linear", "use_bias": false, "kernel_initializer": {"class_name": "GlorotUniform", "config": {"seed": null}}, "bias_initializer": {"class_name": "Zeros", "config": {}, "shared_object_id": 636}, "kernel_regularizer": null, "bias_regularizer": null, "activity_regularizer": null, "kernel_constraint": null, "bias_constraint": null, "depth_multiplier": 1, "depthwise_initializer": {"class_name": "GlorotUniform", "config": {"seed": null}}, "pointwise_initializer": {"class_name": "GlorotUniform", "config": {"seed": null}}, "depthwise_regularizer": null, "pointwise_regularizer": null, "depthwise_constraint": null, "pointwise_constraint": null}, "name": "separable_conv2d_1", "inbound_nodes": [[["activation_34", 0, 0, {}]]]}, {"class_name": "BatchNormalization", "config": {"name": "batch_normalization_3", "trainable": true, "dtype": "float32", "axis": [3], "momentum": 0.99, "epsilon": 0.001, "center": true, "scale": true, "beta_initializer": {"class_name": "Zeros", "config": {}}, "gamma_initializer": {"class_name": "Ones", "config": {}}, "moving_mean_initializer": {"class_name": "Zeros", "config": {}}, "moving_variance_initializer": {"class_name": "Ones", "config": {}}, "beta_regularizer": null, "gamma_regularizer": null, "beta_constraint": null, "gamma_constraint": null}, "name": "batch_normalization_3", "inbound_nodes": [[["separable_conv2d_1", 0, 0, {}]]]}, {"class_name": "Activation", "config": {"name": "activation_35", "trainable": true, "dtype": "float32", "activation": "swish"}, "name": "activation_35", "inbound_nodes": [[["batch_normalization_3", 0, 0, {}]]]}, {"class_name": "Conv2D", "config": {"name": "conv2d_2", "trainable": true, "dtype": "float32", "filters": 64, "kernel_size": [1, 1], "strides": [1, 1], "padding": "same", "data_format": "channels_last", "dilation_rate": [1, 1], "groups": 1, "activation": "linear", "use_bias": false, "kernel_initializer": {"class_name": "GlorotUniform", "config": {"seed": null}}, "bias_initializer": {"class_name": "Zeros", "config": {}}, "kernel_regularizer": null, "bias_regularizer": null, "activity_regularizer": null, "kernel_constraint": null, "bias_constraint": null}, "name": "conv2d_2", "inbound_nodes": [[["activation_35", 0, 0, {}]]]}, {"class_name": "BatchNormalization", "config": {"name": "batch_normalization_4", "trainable": true, "dtype": "float32", "axis": [3], "momentum": 0.99, "epsilon": 0.001, "center": true, "scale": true, "beta_initializer": {"class_name": "Zeros", "config": {}}, "gamma_initializer": {"class_name": "Ones", "config": {}}, "moving_mean_initializer": {"class_name": "Zeros", "config": {}}, "moving_variance_initializer": {"class_name": "Ones", "config": {}}, "beta_regularizer": null, "gamma_regularizer": null, "beta_constraint": null, "gamma_constraint": null}, "name": "batch_normalization_4", "inbound_nodes": [[["conv2d_2", 0, 0, {}]]]}, {"class_name": "Activation", "config": {"name": "activation_36", "trainable": true, "dtype": "float32", "activation": "swish"}, "name": "activation_36", "inbound_nodes": [[["batch_normalization_4", 0, 0, {}]]]}, {"class_name": "SeparableConv2D", "config": {"name": "separable_conv2d_2", "trainable": true, "dtype": "float32", "filters": 128, "kernel_size": [3, 3], "strides": [1, 1], "padding": "valid", "data_format": "channels_last", "dilation_rate": [1, 1], "groups": 1, "activation": "linear", "use_bias": false, "kernel_initializer": {"class_name": "GlorotUniform", "config": {"seed": null}}, "bias_initializer": {"class_name": "Zeros", "config": {}, "shared_object_id": 656}, "kernel_regularizer": null, "bias_regularizer": null, "activity_regularizer": null, "kernel_constraint": null, "bias_constraint": null, "depth_multiplier": 1, "depthwise_initializer": {"class_name": "GlorotUniform", "config": {"seed": null}}, "pointwise_initializer": {"class_name": "GlorotUniform", "config": {"seed": null}}, "depthwise_regularizer": null, "pointwise_regularizer": null, "depthwise_constraint": null, "pointwise_constraint": null}, "name": "separable_conv2d_2", "inbound_nodes": [[["activation_36", 0, 0, {}]]]}, {"class_name": "BatchNormalization", "config": {"name": "batch_normalization_5", "trainable": true, "dtype": "float32", "axis": [3], "momentum": 0.99, "epsilon": 0.001, "center": true, "scale": true, "beta_initializer": {"class_name": "Zeros", "config": {}}, "gamma_initializer": {"class_name": "Ones", "config": {}}, "moving_mean_initializer": {"class_name": "Zeros", "config": {}}, "moving_variance_initializer": {"class_name": "Ones", "config": {}}, "beta_regularizer": null, "gamma_regularizer": null, "beta_constraint": null, "gamma_constraint": null}, "name": "batch_normalization_5", "inbound_nodes": [[["separable_conv2d_2", 0, 0, {}]]]}, {"class_name": "Normalize", "config": {"name": "add_1/add_norm", "trainable": true, "dtype": "float32"}, "name": "add_1/add_norm", "inbound_nodes": [[["add_1", 0, 0, {}]]]}, {"class_name": "Normalize", "config": {"name": "add_7/add_norm", "trainable": true, "dtype": "float32"}, "name": "add_7/add_norm", "inbound_nodes": [[["add_7", 0, 0, {}]]]}, {"class_name": "Normalize", "config": {"name": "add_14/add_norm", "trainable": true, "dtype": "float32"}, "name": "add_14/add_norm", "inbound_nodes": [[["add_14", 0, 0, {}]]]}, {"class_name": "Activation", "config": {"name": "activation_37", "trainable": true, "dtype": "float32", "activation": "swish"}, "name": "activation_37", "inbound_nodes": [[["batch_normalization_5", 0, 0, {}]]]}, {"class_name": "SeparableConv2D", "config": {"name": "add_1/add_mbox_loc_1", "trainable": true, "dtype": "float32", "filters": 16, "kernel_size": [3, 3], "strides": [1, 1], "padding": "same", "data_format": "channels_last", "dilation_rate": [1, 1], "groups": 1, "activation": "linear", "use_bias": true, "kernel_initializer": {"class_name": "GlorotUniform", "config": {"seed": null}}, "bias_initializer": {"class_name": "Zeros", "config": {}, "shared_object_id": 669}, "kernel_regularizer": null, "bias_regularizer": null, "activity_regularizer": null, "kernel_constraint": null, "bias_constraint": null, "depth_multiplier": 1, "depthwise_initializer": {"class_name": "VarianceScaling", "config": {"scale": 2.0, "mode": "fan_out", "distribution": "truncated_normal", "seed": null}, "shared_object_id": 668}, "pointwise_initializer": {"class_name": "VarianceScaling", "config": {"scale": 2.0, "mode": "fan_out", "distribution": "truncated_normal", "seed": null}, "shared_object_id": 668}, "depthwise_regularizer": null, "pointwise_regularizer": null, "depthwise_constraint": null, "pointwise_constraint": null}, "name": "add_1/add_mbox_loc_1", "inbound_nodes": [[["add_1/add_norm", 0, 0, {}]]]}, {"class_name": "SeparableConv2D", "config": {"name": "add_7/add_mbox_loc_1", "trainable": true, "dtype": "float32", "filters": 24, "kernel_size": [3, 3], "strides": [1, 1], "padding": "same", "data_format": "channels_last", "dilation_rate": [1, 1], "groups": 1, "activation": "linear", "use_bias": true, "kernel_initializer": {"class_name": "GlorotUniform", "config": {"seed": null}}, "bias_initializer": {"class_name": "Zeros", "config": {}, "shared_object_id": 672}, "kernel_regularizer": null, "bias_regularizer": null, "activity_regularizer": null, "kernel_constraint": null, "bias_constraint": null, "depth_multiplier": 1, "depthwise_initializer": {"class_name": "VarianceScaling", "config": {"scale": 2.0, "mode": "fan_out", "distribution": "truncated_normal", "seed": null}, "shared_object_id": 668}, "pointwise_initializer": {"class_name": "VarianceScaling", "config": {"scale": 2.0, "mode": "fan_out", "distribution": "truncated_normal", "seed": null}, "shared_object_id": 668}, "depthwise_regularizer": null, "pointwise_regularizer": null, "depthwise_constraint": null, "pointwise_constr…
ock0_MB_pw_bn/beta", "shape": [48], "dtype": "float32", "quantization": {"dtype": "float16", "original_dtype": "float32"}}, {"name": "stack_2_block0_MB_pw_bn/moving_mean", "shape": [48], "dtype": "float32", "quantization": {"dtype": "float16", "original_dtype": "float32"}}, {"name": "stack_2_block0_MB_pw_bn/moving_variance", "shape": [48], "dtype": "float32", "quantization": {"dtype": "float16", "original_dtype": "float32"}}, {"name": "stack_2_block0_MB_pw_conv/kernel", "shape": [1, 1, 128, 48], "dtype": "float32", "quantization": {"dtype": "float16", "original_dtype": "float32"}}, {"name": "stack_2_block0_sortcut_bn/gamma", "shape": [128], "dtype": "float32", "quantization": {"dtype": "float16", "original_dtype": "float32"}}, {"name": "stack_2_block0_sortcut_bn/beta", "shape": [128], "dtype": "float32", "quantization": {"dtype": "float16", "original_dtype": "float32"}}, {"name": "stack_2_block0_sortcut_bn/moving_mean", "shape": [128], "dtype": "float32", "quantization": {"dtype": "float16", "original_dtype": "float32"}}, {"name": "stack_2_block0_sortcut_bn/moving_variance", "shape": [128], "dtype": "float32", "quantization": {"dtype": "float16", "original_dtype": "float32"}}, {"name": "stack_2_block0_sortcut_conv/kernel", "shape": [3, 3, 32, 128], "dtype": "float32", "quantization": {"dtype": "float16", "original_dtype": "float32"}}, {"name": "stack_2_block1_MB_pw_bn/gamma", "shape": [48], "dtype": "float32", "quantization": {"dtype": "float16", "original_dtype": "float32"}}, {"name": "stack_2_block1_MB_pw_bn/beta", "shape": [48], "dtype": "float32", "quantization": {"dtype": "float16", "original_dtype": "float32"}}, {"name": "stack_2_block1_MB_pw_bn/moving_mean", "shape": [48], "dtype": "float32", "quantization": {"dtype": "float16", "original_dtype": "float32"}}, {"name": "stack_2_block1_MB_pw_bn/moving_variance", "shape": [48], "dtype": "float32", "quantization": {"dtype": "float16", "original_dtype": "float32"}}, {"name": "stack_2_block1_MB_pw_conv/kernel", "shape": [1, 1, 192, 48], "dtype": "float32", "quantization": {"dtype": "float16", "original_dtype": "float32"}}, {"name": "stack_2_block1_sortcut_bn/gamma", "shape": [192], "dtype": "float32", "quantization": {"dtype": "float16", "original_dtype": "float32"}}, {"name": "stack_2_block1_sortcut_bn/beta", "shape": [192], "dtype": "float32", "quantization": {"dtype": "float16", "original_dtype": "float32"}}, {"name": "stack_2_block1_sortcut_bn/moving_mean", "shape": [192], "dtype": "float32", "quantization": {"dtype": "float16", "original_dtype": "float32"}}, {"name": "stack_2_block1_sortcut_bn/moving_variance", "shape": [192], "dtype": "float32", "quantization": {"dtype": "float16", "original_dtype": "float32"}}, {"name": "stack_2_block1_sortcut_conv/kernel", "shape": [3, 3, 48, 192], "dtype": "float32", "quantization": {"dtype": "float16", "original_dtype": "float32"}}, {"name": "stack_3_block0_MB_dw_/depthwise_kernel", "shape": [3, 3, 192, 1], "dtype": "float32", "quantization": {"dtype": "float16", "original_dtype": "float32"}}, {"name": "stack_3_block0_MB_dw_bn/gamma", "shape": [192], "dtype": "float32", "quantization": {"dtype": "float16", "original_dtype": "float32"}}, {"name": "stack_3_block0_MB_dw_bn/beta", "shape": [192], "dtype": "float32", "quantization": {"dtype": "float16", "original_dtype": "float32"}}, {"name": "stack_3_block0_MB_dw_bn/moving_mean", "shape": [192], "dtype": "float32", "quantization": {"dtype": "float16", "original_dtype": "float32"}}, {"name": "stack_3_block0_MB_dw_bn/moving_variance", "shape": [192], "dtype": "float32", "quantization": {"dtype": "float16", "original_dtype": "float32"}}, {"name": "stack_3_block0_MB_pw_bn/gamma", "shape": [96], "dtype": "float32", "quantization": {"dtype": "float16", "original_dtype": "float32"}}, {"name": "stack_3_block0_MB_pw_bn/beta", "shape": [96], "dtype": "float32", "quantization": {"dtype": "float16", "original_dtype": "float32"}}, {"name": "stack_3_block0_MB_pw_bn/moving_mean", "shape": [96], "dtype": "float32", "quantization": {"dtype": "float16", "original_dtype": "float32"}}, {"name": "stack_3_block0_MB_pw_bn/moving_variance", "shape": [96], "dtype": "float32", "quantization": {"dtype": "float16", "original_dtype": "float32"}}, {"name": "stack_3_block0_MB_pw_conv/kernel", "shape": [1, 1, 192, 96], "dtype": "float32", "quantization": {"dtype": "float16", "original_dtype": "float32"}}, {"name": "stack_3_block0_se_1_conv/kernel", "shape": [1, 1, 192, 12], "dtype": "float32", "quantization": {"dtype": "float16", "original_dtype": "float32"}}, {"name": "stack_3_block0_se_1_conv/bias", "shape": [12], "dtype": "float32", "quantization": {"dtype": "float16", "original_dtype": "float32"}}, {"name": "stack_3_block0_se_2_conv/kernel", "shape": [1, 1, 12, 192], "dtype": "float32", "quantization": {"dtype": "float16", "original_dtype": "float32"}}, {"name": "stack_3_block0_se_2_conv/bias", "shape": [192], "dtype": "float32", "quantization": {"dtype": "float16", "original_dtype": "float32"}}, {"name": "stack_3_block0_sortcut_bn/gamma", "shape": [192], "dtype": "float32", "quantization": {"dtype": "float16", "original_dtype": "float32"}}, {"name": "stack_3_block0_sortcut_bn/beta", "shape": [192], "dtype": "float32", "quantization": {"dtype": "float16", "original_dtype": "float32"}}, {"name": "stack_3_block0_sortcut_bn/moving_mean", "shape": [192], "dtype": "float32", "quantization": {"dtype": "float16", "original_dtype": "float32"}}, {"name": "stack_3_block0_sortcut_bn/moving_variance", "shape": [192], "dtype": "float32", "quantization": {"dtype": "float16", "original_dtype": "float32"}}, {"name": "stack_3_block0_sortcut_conv/kernel", "shape": [1, 1, 48, 192], "dtype": "float32", "quantization": {"dtype": "float16", "original_dtype": "float32"}}, {"name": "stack_3_block1_MB_dw_/depthwise_kernel", "shape": [3, 3, 384, 1], "dtype": "float32", "quantization": {"dtype": "float16", "original_dtype": "float32"}}, {"name": "stack_3_block1_MB_dw_bn/gamma", "shape": [384], "dtype": "float32", "quantization": {"dtype": "float16", "original_dtype": "float32"}}, {"name": "stack_3_block1_MB_dw_bn/beta", "shape": [384], "dtype": "float32", "quantization": {"dtype": "float16", "original_dtype": "float32"}}, {"name": "stack_3_block1_MB_dw_bn/moving_mean", "shape": [384], "dtype": "float32", "quantization": {"dtype": "float16", "original_dtype": "float32"}}, {"name": "stack_3_block1_MB_dw_bn/moving_variance", "shape": [384], "dtype": "float32", "quantization": {"dtype": "float16", "original_dtype": "float32"}}, {"name": "stack_3_block1_MB_pw_bn/gamma", "shape": [96], "dtype": "float32", "quantization": {"dtype": "float16", "original_dtype": "float32"}}, {"name": "stack_3_block1_MB_pw_bn/beta", "shape": [96], "dtype": "float32", "quantization": {"dtype": "float16", "original_dtype": "float32"}}, {"name": "stack_3_block1_MB_pw_bn/moving_mean", "shape": [96], "dtype": "float32", "quantization": {"dtype": "float16", "original_dtype": "float32"}}, {"name": "stack_3_block1_MB_pw_bn/moving_variance", "shape": [96], "dtype": "float32", "quantization": {"dtype": "float16", "original_dtype": "float32"}}, {"name": "stack_3_block1_MB_pw_conv/kernel", "shape": [1, 1, 384, 96], "dtype": "float32", "quantization": {"dtype": "float16", "original_dtype": "float32"}}, {"name": "stack_3_block1_se_1_conv/kernel", "shape": [1, 1, 384, 24], "dtype": "float32", "quantization": {"dtype": "float16", "original_dtype": "float32"}}, {"name": "stack_3_block1_se_1_conv/bias", "shape": [24], "dtype": "float32", "quantization": {"dtype": "float16", "original_dtype": "float32"}}, {"name": "stack_3_block1_se_2_conv/kernel", "shape": [1, 1, 24, 384], "dtype": "float32", "quantization": {"dtype": "float16", "original_dtype": "float32"}}, {"name": "stack_3_block1_se_2_conv/bias", "shape": [384], "dtype": "float32", "quantization": {"dtype": "float16", "original_dtype": "float32"}}, {"name": "stack_3_block1_sortcut_bn/gamma", "shape": [384], "dtype": "float32", "quantization": {"dtype": "float16", "original_dtype": "float32"}}, {"name": "stack_3_block1_sortcut_bn/beta", "shape": [384], "dtype": "float32", "quantization": {"dtype": "float16", "original_dtype": "float32"}}, {"name": "stack_3_block1_sortcut_bn/moving_mean", "shape": [384], "dtype": "float32", "quantization": {"dtype": "float16", "original_dtype": "float32"}}, {"name": "stack_3_block1_sortcut_bn/moving_variance", "shape": [384], "dtype": "float32", "quantization": {"dtype": "float16", "original_dtype": "float32"}}, {"name": "stack_3_block1_sortcut_conv/kernel", "shape": [1, 1, 96, 384], "dtype": "float32", "quantization": {"dtype": "float16", "original_dtype": "float32"}}, {"name": "stack_3_block2_MB_dw_/depthwise_kernel", "shape": [3, 3, 384, 1], "dtype": "float32", "quantization": {"dtype": "float16", "original_dtype": "float32"}}, {"name": "stack_3_block2_MB_dw_bn/gamma", "shape": [384], "dtype": "float32", "quantization": {"dtype": "float16", "original_dtype": "float32"}}, {"name": "stack_3_block2_MB_dw_bn/beta", "shape": [384], "dtype": "float32", "quantization": {"dtype": "float16", "original_dtype": "float32"}}, {"name": "stack_3_block2_MB_dw_bn/moving_mean", "shape": [384], "dtype": "float32", "quantization": {"dtype": "float16", "original_dtype": "float32"}}, {"name": "stack_3_block2_MB_dw_bn/moving_variance", "shape": [384], "dtype": "float32", "quantization": {"dtype": "float16", "original_dtype": "float32"}}, {"name": "stack_3_block2_MB_pw_bn/gamma", "shape": [96], "dtype": "float32", "quantization": {"dtype": "float16", "original_dtype": "float32"}}, {"name": "stack_3_block2_MB_pw_bn/beta", "shape": [96], "dtype": "float32", "quantization": {"dtype": "float16", "original_dtype": "float32"}}, {"name": "stack_3_block2_MB_pw_bn/moving_mean", "shape": [96], "dtype": "float32", "quantization": {"dtype": "float16", "original_dtype": "float32"}}, {"name": "stack_3_block2_MB_pw_bn/moving_variance", "shape": [96], "dtype": "float32", "quantization": {"dtype": "float16", "original_dtype": "float32"}}, {"name": "stack_3_block2_MB_pw_conv/kernel", "shape": [1, 1, 384, 96], "dtype": "float32", "quantization": {"dtype": "float16", "original_dtype": "float32"}}, {"name": "stack_3_block2_se_1_conv/kernel", "shape": [1, 1, 384, 24], "dtype": "float32", "quantization": {"dtype": "float16", "original_dtype": "float32"}}, {"name": "stack_3_block2_se_1_conv/bias", "shape": [24], "dtype": "float32", "quantization": {"dtype": "float16", "original_dtype": "float32"}}, {"name": "stack_3_block2_se_2_conv/kernel", "shape": [1, 1, 24, 384], "dtype": "float32", "quantization": {"dtype": "float16", "original_dtype": "float32"}}, {"name": "stack_3_block2_se_2_conv/bias", "shape": [384], "dtype": "float32", "quantization": {"dtype": "float16", "original_dtype": "float32"}}, {"name": "stack_3_block2_sortcut_bn/gamma", "shape": [384], "dtype": "float32", "quantization": {"dtype": "float16", "original_dtype": "float32"}}, {"name": "stack_3_block2_sortcut_bn/beta", "shape": [384], "dtype": "float32", "quantization": {"dtype": "float16", "original_dtype": "float32"}}, {"name": "stack_3_block2_sortcut_bn/moving_mean", "shape": [384], "dtype": "float32", "quantization": {"dtype": "float16", "original_dtype": "float32"}}, {"name": "stack_3_block2_sortcut_bn/moving_variance", "shape": [384], "dtype": "float32", "quantization": {"dtype": "float16", "original_dtype": "float32"}}, {"name": "stack_3_block2_sortcut_conv/kernel", "shape": [1, 1, 96, 384], "dtype": "float32", "quantization": {"dtype": "float16", "original_dtype": "float32"}}, {"name": "stack_4_block0_MB_dw_/depthwise_kernel", "shape": [3, 3, 576, 1], "dtype": "float32", "quantization": {"dtype": "float16", "original_dtype": "float32"}}, {"name": "stack_4_block0_MB_dw_bn/gamma", "shape": [576], "dtype": "float32", "quantization": {"dtype": "float16", "original_dtype": "float32"}}, {"name": "stack_4_block0_MB_dw_bn/beta", "shape": [576], "dtype": "float32", "quantization": {"dtype": "float16", "original_dtype": "float32"}}, {"name": "stack_4_block0_MB_dw_bn/moving_mean", "shape": [576], "dtype": "float32", "quantization": {"dtype": "float16", "original_dtype": "float32"}}, {"name": "stack_4_block0_MB_dw_bn/moving_variance", "shape": [576], "dtype": "float32", "quantization": {"dtype": "float16", "original_dtype": "float32"}}, {"name": "stack_4_block0_MB_pw_bn/gamma", "shape": [112], "dtype": "float32", "quantization": {"dtype": "float16", "original_dtype": "float32"}}, {"name": "stack_4_block0_MB_pw_bn/beta", "shape": [112], "dtype": "float32", "quantization": {"dtype": "float16", "original_dtype": "float32"}}, {"name": "stack_4_block0_MB_pw_bn/moving_mean", "shape": [112], "dtype": "float32", "quantization": {"dtype": "float16", "original_dtype": "float32"}}, {"name": "stack_4_block0_MB_pw_bn/moving_variance", "shape": [112], "dtype": "float32", "quantization": {"dtype": "float16", "original_dtype": "float32"}}, {"name": "stack_4_block0_MB_pw_conv/kernel", "shape": [1, 1, 576, 112], "dtype": "float32", "quantization": {"dtype": "float16", "original_dtype": "float32"}}, {"name": "stack_4_block0_se_1_conv/kernel", "shape": [1, 1, 576, 24], "dtype": "float32", "quantization": {"dtype": "float16", "original_dtype": "float32"}}, {"name": "stack_4_block0_se_1_conv/bias", "shape": [24], "dtype": "float32", "quantization": {"dtype": "float16", "original_dtype": "float32"}}, {"name": "stack_4_block0_se_2_conv/kernel", "shape": [1, 1, 24, 576], "dtype": "float32", "quantization": {"dtype": "float16", "original_dtype": "float32"}}, {"name": "stack_4_block0_se_2_conv/bias", "shape": [576], "dtype": "float32", "quantization": {"dtype": "float16", "original_dtype": "float32"}}, {"name": "stack_4_block0_sortcut_bn/gamma", "shape": [576], "dtype": "float32", "quantization": {"dtype": "float16", "original_dtype": "float32"}}, {"name": "stack_4_block0_sortcut_bn/beta", "shape": [576], "dtype": "float32", "quantization": {"dtype": "float16", "original_dtype": "float32"}}, {"name": "stack_4_block0_sortcut_bn/moving_mean", "shape": [576], "dtype": "float32", "quantization": {"dtype": "float16", "original_dtype": "float32"}}, {"name": "stack_4_block0_sortcut_bn/moving_variance", "shape": [576], "dtype": "float32", "quantization": {"dtype": "float16", "original_dtype": "float32"}}, {"name": "stack_4_block0_sortcut_conv/kernel", "shape": [1, 1, 96, 576], "dtype": "float32", "quantization": {"dtype": "float16", "original_dtype": "float32"}}, {"name": "stack_4_block1_MB_dw_/depthwise_kernel", "shape": [3, 3, 672, 1], "dtype": "float32", "quantization": {"dtype": "float16", "original_dtype": "float32"}}, {"name": "stack_4_block1_MB_dw_bn/gamma", "shape": [672], "dtype": "float32", "quantization": {"dtype": "float16", "original_dtype": "float32"}}, {"name": "stack_4_block1_MB_dw_bn/beta", "shape": [672], "dtype": "float32", "quantization": {"dtype": "float16", "original_dtype": "float32"}}, {"name": "stack_4_block1_MB_dw_bn/moving_mean", "shape": [672], "dtype": "float32", "quantization": {"dtype": "float16", "original_dtype": "float32"}}, {"name": "stack_4_block1_MB_dw_bn/moving_variance", "shape": [672], "dtype": "float32", "quantization": {"dtype": "float16", "original_dtype": "float32"}}, {"name": "stack_4_block1_MB_pw_bn/gamma", "shape": [112], "dtype": "float32", "quantization": {"dtype": "float16", "original_dtype": "float32"}}, {"name": "stack_4_block1_MB_pw_bn/beta", "shape": [112], "dtype": "float32", "quantization": {"dtype": "float16", "original_dtype": "float32"}}, {"name": "stack_4_block1_MB_pw_bn/moving_mean", "shape": [112], "dtype": "float32", "quantization": {"dtype": "float16", "original_dtype": "float32"}}, {"name": "stack_4_block1_MB_pw_bn/moving_variance", "shape": [112], "dtype": "float32", "quantization": {"dtype": "float16", "original_dtype": "float32"}}, {"name": "stack_4_block1_MB_pw_conv/kernel", "shape": [1, 1, 672, 112], "dtype": "float32", "quantization": {"dtype": "float16", "original_dtype": "float32"}}, {"name": "stack_4_block1_se_1_conv/kernel", "shape": [1, 1, 672, 28], "dtype": "float32", "quantization": {"dtype": "float16", "original_dtype": "float32"}}, {"name": "stack_4_block1_se_1_conv/bias", "shape": [28], "dtype": "float32", "quantization": {"dtype": "float16", "original_dtype": "float32"}}, {"name": "stack_4_block1_se_2_conv/kernel", "shape": [1, 1, 28, 672], "dtype": "float32", "quantization": {"dtype": "float16", "original_dtype": "float32"}}, {"name": "stack_4_block1_se_2_conv/bias", "shape": [672], "dtype": "float32", "quantization": {"dtype": "float16", "original_dtype": "float32"}}, {"name": "stack_4_block1_sortcut_bn/gamma", "shape": [672], "dtype": "float32", "quantization": {"dtype": "float16", "original_dtype": "float32"}}, {"name": "stack_4_block1_sortcut_bn/beta", "shape": [672], "dtype": "float32", "quantization": {"dtype": "float16", "original_dtype": "float32"}}, {"name": "stack_4_block1_sortcut_bn/moving_mean", "shape": [672], "dtype": "float32", "quantization": {"dtype": "float16", "original_dtype": "float32"}}, {"name": "stack_4_block1_sortcut_bn/moving_variance", "shape": [672], "dtype": "float32", "quantization": {"dtype": "float16", "original_dtype": "float32"}}, {"name": "stack_4_block1_sortcut_conv/kernel", "shape": [1, 1, 112, 672], "dtype": "float32", "quantization": {"dtype": "float16", "original_dtype": "float32"}}, {"name": "stack_4_block2_MB_dw_/depthwise_kernel", "shape": [3, 3, 672, 1], "dtype": "float32", "quantization": {"dtype": "float16", "original_dtype": "float32"}}, {"name": "stack_4_block2_MB_dw_bn/gamma", "shape": [672], "dtype": "float32", "quantization": {"dtype": "float16", "original_dtype": "float32"}}, {"name": "stack_4_block2_MB_dw_bn/beta", "shape": [672], "dtype": "float32", "quantization": {"dtype": "float16", "original_dtype": "float32"}}, {"name": "stack_4_block2_MB_dw_bn/moving_mean", "shape": [672], "dtype": "float32", "quantization": {"dtype": "float16", "original_dtype": "float32"}}, {"name": "stack_4_block2_MB_dw_bn/moving_variance", "shape": [672], "dtype": "float32", "quantization": {"dtype": "float16", "original_dtype": "float32"}}, {"name": "stack_4_block2_MB_pw_bn/gamma", "shape": [112], "dtype": "float32", "quantization": {"dtype": "float16", "original_dtype": "float32"}}, {"name": "stack_4_block2_MB_pw_bn/beta", "shape": [112], "dtype": "float32", "quantization": {"dtype": "float16", "original_dtype": "float32"}}, {"name": "stack_4_block2_MB_pw_bn/moving_mean", "shape": [112], "dtype": "float32", "quantization": {"dtype": "float16", "original_dtype": "float32"}}, {"name": "stack_4_block2_MB_pw_bn/moving_variance", "shape": [112], "dtype": "float32", "quantization": {"dtype": "float16", "original_dtype": "float32"}}, {"name": "stack_4_block2_MB_pw_conv/kernel", "shape": [1, 1, 672, 112], "dtype": "float32", "quantization": {"dtype": "float16", "original_dtype": "float32"}}, {"name": "stack_4_block2_se_1_conv/kernel", "shape": [1, 1, 672, 28], "dtype": "float32", "quantization": {"dtype": "float16", "original_dtype": "float32"}}, {"name": "stack_4_block2_se_1_conv/bias", "shape": [28], "dtype": "float32", "quantization": {"dtype": "float16", "original_dtype": "float32"}}, {"name": "stack_4_block2_se_2_conv/kernel", "shape": [1, 1, 28, 672], "dtype": "float32", "quantization": {"dtype": "float16", "original_dtype": "float32"}}, {"name": "stack_4_block2_se_2_conv/bias", "shape": [672], "dtype": "float32", "quantization": {"dtype": "float16", "original_dtype": "float32"}}, {"name": "stack_4_block2_sortcut_bn/gamma", "shape": [672], "dtype": "float32", "quantization": {"dtype": "float16", "original_dtype": "float32"}}, {"name": "stack_4_block2_sortcut_bn/beta", "shape": [672], "dtype": "float32", "quantization": {"dtype": "float16", "original_dtype": "float32"}}, {"name": "stack_4_block2_sortcut_bn/moving_mean", "shape": [672], "dtype": "float32", "quantization": {"dtype": "float16", "original_dtype": "float32"}}, {"name": "stack_4_block2_sortcut_bn/moving_variance", "shape": [672], "dtype": "float32", "quantization": {"dtype": "float16", "original_dtype": "float32"}}, {"name": "stack_4_block2_sortcut_conv/kernel", "shape": [1, 1, 112, 672], "dtype": "float32", "quantization": {"dtype": "float16", "original_dtype": "float32"}}, {"name": "stack_4_block3_MB_dw_/depthwise_kernel", "shape": [3, 3, 672, 1], "dtype": "float32", "quantization": {"dtype": "float16", "original_dtype": "float32"}}, {"name": "stack_4_block3_MB_dw_bn/gamma", "shape": [672], "dtype": "float32", "quantization": {"dtype": "float16", "original_dtype": "float32"}}, {"name": "stack_4_block3_MB_dw_bn/beta", "shape": [672], "dtype": "float32", "quantization": {"dtype": "float16", "original_dtype": "float32"}}, {"name": "stack_4_block3_MB_dw_bn/moving_mean", "shape": [672], "dtype": "float32", "quantization": {"dtype": "float16", "original_dtype": "float32"}}, {"name": "stack_4_block3_MB_dw_bn/moving_variance", "shape": [672], "dtype": "float32", "quantization": {"dtype": "float16", "original_dtype": "float32"}}, {"name": "stack_4_block3_MB_pw_bn/gamma", "shape": [112], "dtype": "float32", "quantization": {"dtype": "float16", "original_dtype": "float32"}}, {"name": "stack_4_block3_MB_pw_bn/beta", "shape": [112], "dtype": "float32", "quantization": {"dtype": "float16", "original_dtype": "float32"}}, {"name": "stack_4_block3_MB_pw_bn/moving_mean", "shape": [112], "dtype": "float32", "quantization": {"dtype": "float16", "original_dtype": "float32"}}, {"name": "stack_4_block3_MB_pw_bn/moving_variance", "shape": [112], "dtype": "float32", "quantization": {"dtype": "float16", "original_dtype": "float32"}}, {"name": "stack_4_block3_MB_pw_conv/kernel", "shape": [1, 1, 672, 112], "dtype": "float32", "quantization": {"dtype": "float16", "original_dtype": "float32"}}, {"name": "stack_4_block3_se_1_conv/kernel", "shape": [1, 1, 672, 28], "dtype": "float32", "quantization": {"dtype": "float16", "original_dtype": "float32"}}, {"name": "stack_4_block3_se_1_conv/bias", "shape": [28], "dtype": "float32", "quantization": {"dtype": "float16", "original_dtype": "float32"}}, {"name": "stack_4_block3_se_2_conv/kernel", "shape": [1, 1, 28, 672], "dtype": "float32", "quantization": {"dtype": "float16", "original_dtype": "float32"}}, {"name": "stack_4_block3_se_2_conv/bias", "shape": [672], "dtype": "float32", "quantization": {"dtype": "float16", "original_dtype": "float32"}}, {"name": "stack_4_block3_sortcut_bn/gamma", "shape": [672], "dtype": "float32", "quantization": {"dtype": "float16", "original_dtype": "float32"}}, {"name": "stack_4_block3_sortcut_bn/beta", "shape": [672], "dtype": "float32", "quantization": {"dtype": "float16", "original_dtype": "float32"}}, {"name": "stack_4_block3_sortcut_bn/moving_mean", "shape": [672], "dtype": "float32", "quantization": {"dtype": "float16", "original_dtype": "float32"}}, {"name": "stack_4_block3_sortcut_bn/moving_variance", "shape": [672], "dtype": "float32", "quantization": {"dtype": "float16", "original_dtype": "float32"}}, {"name": "stack_4_block3_sortcut_conv/kernel", "shape": [1, 1, 112, 672], "dtype": "float32", "quantization": {"dtype": "float16", "original_dtype": "float32"}}, {"name": "stack_4_block4_MB_dw_/depthwise_kernel", "shape": [3, 3, 672, 1], "dtype": "float32", "quantization": {"dtype": "float16", "original_dtype": "float32"}}, {"name": "stack_4_block4_MB_dw_bn/gamma", "shape": [672], "dtype": "float32", "quantization": {"dtype": "float16", "original_dtype": "float32"}}, {"name": "stack_4_block4_MB_dw_bn/beta", "shape": [672], "dtype": "float32", "quantization": {"dtype": "float16", "original_dtype": "float32"}}, {"name": "stack_4_block4_MB_dw_bn/moving_mean", "shape": [672], "dtype": "float32", "quantization": {"dtype": "float16", "original_dtype": "float32"}}, {"name": "stack_4_block4_MB_dw_bn/moving_variance", "shape": [672], "dtype": "float32", "quantization": {"dtype": "float16", "original_dtype": "float32"}}, {"name": "stack_4_block4_MB_pw_bn/gamma", "shape": [112], "dtype": "float32", "quantization": {"dtype": "float16", "original_dtype": "float32"}}, {"name": "stack_4_block4_MB_pw_bn/beta", "shape": [112], "dtype": "float32", "quantization": {"dtype": "float16", "original_dtype": "float32"}}, {"name": "stack_4_block4_MB_pw_bn/moving_mean", "shape": [112], "dtype": "float32", "quantization": {"dtype": "float16", "original_dtype": "float32"}}, {"name": "stack_4_block4_MB_pw_bn/moving_variance", "shape": [112], "dtype": "float32", "quantization": {"dtype": "float16", "original_dtype": "float32"}}, {"name": "stack_4_block4_MB_pw_conv/kernel", "shape": [1, 1, 672, 112], "dtype": "float32", "quantization": {"dtype": "float16", "original_dtype": "float32"}}, {"name": "stack_4_block4_se_1_conv/kernel", "shape": [1, 1, 672, 28], "dtype": "float32", "quantization": {"dtype": "float16", "original_dtype": "float32"}}, {"name": "stack_4_block4_se_1_conv/bias", "shape": [28], "dtype": "float32", "quantization": {"dtype": "float16", "original_dtype": "float32"}}, {"name": "stack_4_block4_se_2_conv/kernel", "shape": [1, 1, 28, 672], "dtype": "float32", "quantization": {"dtype": "float16", "original_dtype": "float32"}}, {"name": "stack_4_block4_se_2_conv/bias", "shape": [672], "dtype": "float32", "quantization": {"dtype": "float16", "original_dtype": "float32"}}, {"name": "stack_4_block4_sortcut_bn/gamma", "shape": [672], "dtype": "float32", "quantization": {"dtype": "float16", "original_dtype": "float32"}}, {"name": "stack_4_block4_sortcut_bn/beta", "shape": [672], "dtype": "float32", "quantization": {"dtype": "float16", "original_dtype": "float32"}}, {"name": "stack_4_block4_sortcut_bn/moving_mean", "shape": [672], "dtype": "float32", "quantization": {"dtype": "float16", "original_dtype": "float32"}}, {"name": "stack_4_block4_sortcut_bn/moving_variance", "shape": [672], "dtype": "float32", "quantization": {"dtype": "float16", "original_dtype": "float32"}}, {"name": "stack_4_block4_sortcut_conv/kernel", "shape": [1, 1, 112, 672], "dtype": "float32", "quantization": {"dtype": "float16", "original_dtype": "float32"}}, {"name": "stack_5_block0_MB_dw_/depthwise_kernel", "shape": [3, 3, 672, 1], "dtype": "float32", "quantization": {"dtype": "float16", "original_dtype": "float32"}}, {"name": "stack_5_block0_MB_dw_bn/gamma", "shape": [672], "dtype": "float32", "quantization": {"dtype": "float16", "original_dtype": "float32"}}, {"name": "stack_5_block0_MB_dw_bn/beta", "shape": [672], "dtype": "float32", "quantization": {"dtype": "float16", "original_dtype": "float32"}}, {"name": "stack_5_block0_MB_dw_bn/moving_mean", "shape": [672], "dtype": "float32", "quantization": {"dtype": "float16", "original_dtype": "float32"}}, {"name": "stack_5_block0_MB_dw_bn/moving_variance", "shape": [672], "dtype": "float32", "quantization": {"dtype": "float16", "original_dtype": "float32"}}, {"name": "stack_5_block0_MB_pw_bn/gamma", "shape": [192], "dtype": "float32", "quantization": {"dtype": "float16", "original_dtype": "float32"}}, {"name": "stack_5_block0_MB_pw_bn/beta", "shape": [192], "dtype": "float32", "quantization": {"dtype": "float16", "original_dtype": "float32"}}, {"name": "stack_5_block0_MB_pw_bn/moving_mean", "shape": [192], "dtype": "float32", "quantization": {"dtype": "float16", "original_dtype": "float32"}}, {"name": "stack_5_block0_MB_pw_bn/moving_variance", "shape": [192], "dtype": "float32", "quantization": {"dtype": "float16", "original_dtype": "float32"}}, {"name": "stack_5_block0_MB_pw_conv/kernel", "shape": [1, 1, 672, 192], "dtype": "float32", "quantization": {"dtype": "float16", "original_dtype": "float32"}}, {"name": "stack_5_block0_se_1_conv/kernel", "shape": [1, 1, 672, 28], "dtype": "float32", "quantization": {"dtype": "float16", "original_dtype": "float32"}}, {"name": "stack_5_block0_se_1_conv/bias", "shape": [28], "dtype": "float32", "quantization": {"dtype": "float16", "original_dtype": "float32"}}, {"name": "stack_5_block0_se_2_conv/kernel", "shape": [1, 1, 28, 672], "dtype": "float32", "quantization": {"dtype": "float16", "original_dtype": "float32"}}, {"name": "stack_5_block0_se_2_conv/bias", "shape": [672], "dtype": "float32", "quantization": {"dtype": "float16", "original_dtype": "float32"}}, {"name": "stack_5_block0_sortcut_bn/gamma", "shape": [672], "dtype": "float32", "quantization": {"dtype": "float16", "original_dtype": "float32"}}, {"name": "stack_5_block0_sortcut_bn/beta", "shape": [672], "dtype": "float32", "quantization": {"dtype": "float16", "original_dtype": "float32"}}, {"name": "stack_5_block0_sortcut_bn/moving_mean", "shape": [672], "dtype": "float32", "quantization": {"dtype": "float16", "original_dtype": "float32"}}, {"name": "stack_5_block0_sortcut_bn/moving_variance", "shape": [672], "dtype": "float32", "quantization": {"dtype": "float16", "original_dtype": "float32"}}, {"name": "stack_5_block0_sortcut_conv/kernel", "shape": [1, 1, 112, 672], "dtype": "float32", "quantization": {"dtype": "float16", "original_dtype": "float32"}}, {"name": "stack_5_block1_MB_dw_/depthwise_kernel", "shape": [3, 3, 1152, 1], "dtype": "float32", "quantization": {"dtype": "float16", "original_dtype": "float32"}}, {"name": "stack_5_block1_MB_dw_bn/gamma", "shape": [1152], "dtype": "float32", "quantization": {"dtype": "float16", "original_dtype": "float32"}}, {"name": "stack_5_block1_MB_dw_bn/beta", "shape": [1152], "dtype": "float32", "quantization": {"dtype": "float16", "original_dtype": "float32"}}, {"name": "stack_5_block1_MB_dw_bn/moving_mean", "shape": [1152], "dtype": "float32", "quantization": {"dtype": "float16", "original_dtype": "float32"}}, {"name": "stack_5_block1_MB_dw_bn/moving_variance", "shape": [1152], "dtype": "float32", "quantization": {"dtype": "float16", "original_dtype": "float32"}}, {"name": "stack_5_block1_MB_pw_bn/gamma", "shape": [192], "dtype": "float32", "quantization": {"dtype": "float16", "original_dtype": "float32"}}, {"name": "stack_5_block1_MB_pw_bn/beta", "shape": [192], "dtype": "float32", "quantization": {"dtype": "float16", "original_dtype": "float32"}}, {"name": "stack_5_block1_MB_pw_bn/moving_mean", "shape": [192], "dtype": "float32", "quantization": {"dtype": "float16", "original_dtype": "float32"}}, {"name": "stack_5_block1_MB_pw_bn/moving_variance", "shape": [192], "dtype": "float32", "quantization": {"dtype": "float16", "original_dtype": "float32"}}, {"name": "stack_5_block1_MB_pw_conv/kernel", "shape": [1, 1, 1152, 192], "dtype": "float32", "quantization": {"dtype": "float16", "original_dtype": "float32"}}, {"name": "stack_5_block1_se_1_conv/kernel", "shape": [1, 1, 1152, 48], "dtype": "float32", "quantization": {"dtype": "float16", "original_dtype": "float32"}}, {"name": "stack_5_block1_se_1_conv/bias", "shape": [48], "dtype": "float32", "quantization": {"dtype": "float16", "original_dtype": "float32"}}, {"name": "stack_5_block1_se_2_conv/kernel", "shape": [1, 1, 48, 1152], "dtype": "float32", "quantization": {"dtype": "float16", "original_dtype": "float32"}}, {"name": "stack_5_block1_se_2_conv/bias", "shape": [1152], "dtype": "float32", "quantization": {"dtype": "float16", "original_dtype": "float32"}}, {"name": "stack_5_block1_sortcut_bn/gamma", "shape": [1152], "dtype": "float32", "quantization": {"dtype": "float16", "original_dtype": "float32"}}, {"name": "stack_5_block1_sortcut_bn/beta", "shape": [1152], "dtype": "float32", "quantization": {"dtype": "float16", "original_dtype": "float32"}}, {"name": "stack_5_block1_sortcut_bn/moving_mean", "shape": [1152], "dtype": "float32", "quantization": {"dtype": "float16", "original_dtype": "float32"}}, {"name": "stack_5_block1_sortcut_bn/moving_variance", "shape": [1152], "dtype": "float32", "quantization": {"dtype": "float16", "original_dtype": "float32"}}, {"name": "stack_5_block1_sortcut_conv/kernel", "shape": [1, 1, 192, 1152], "dtype": "float32", "quantization": {"dtype": "float16", "original_dtype": "float32"}}, {"name": "stack_5_block2_MB_dw_/depthwise_kernel", "shape": [3, 3, 1152, 1], "dtype": "float32", "quantization": {"dtype": "float16", "original_dtype": "float32"}}, {"name": "stack_5_block2_MB_dw_bn/gamma", "shape": [1152], "dtype": "float32", "quantization": {"dtype": "float16", "original_dtype": "float32"}}, {"name": "stack_5_block2_MB_dw_bn/beta", "shape": [1152], "dtype": "float32", "quantization": {"dtype": "float16", "original_dtype": "float32"}}, {"name": "stack_5_block2_MB_dw_bn/moving_mean", "shape": [1152], "dtype": "float32", "quantization": {"dtype": "float16", "original_dtype": "float32"}}, {"name": "stack_5_block2_MB_dw_bn/moving_variance", "shape": [1152], "dtype": "float32", "quantization": {"dtype": "float16", "original_dtype": "float32"}}, {"name": "stack_5_block2_MB_pw_bn/gamma", "shape": [192], "dtype": "float32", "quantization": {"dtype": "float16", "original_dtype": "float32"}}, {"name": "stack_5_block2_MB_pw_bn/beta", "shape": [192], "dtype": "float32", "quantization": {"dtype": "float16", "original_dtype": "float32"}}, {"name": "stack_5_block2_MB_pw_bn/moving_mean", "shape": [192], "dtype": "float32", "quantization": {"dtype": "float16", "original_dtype": "float32"}}, {"name": "stack_5_block2_MB_pw_bn/moving_variance", "shape": [192], "dtype": "float32", "quantization": {"dtype": "float16", "original_dtype": "float32"}}, {"name": "stack_5_block2_MB_pw_conv/kernel", "shape": [1, 1, 1152, 192], "dtype": "float32", "quantization": {"dtype": "float16", "original_dtype": "float32"}}, {"name": "stack_5_block2_se_1_conv/kernel", "shape": [1, 1, 1152, 48], "dtype": "float32", "quantization": {"dtype": "float16", "original_dtype": "float32"}}, {"name": "stack_5_block2_se_1_conv/bias", "shape": [48], "dtype": "float32", "quantization": {"dtype": "float16", "original_dtype": "float32"}}, {"name": "stack_5_block2_se_2_conv/kernel", "shape": [1, 1, 48, 1152], "dtype": "float32", "quantization": {"dtype": "float16", "original_dtype": "float32"}}, {"name": "stack_5_block2_se_2_conv/bias", "shape": [1152], "dtype": "float32", "quantization": {"dtype": "float16", "original_dtype": "float32"}}, {"name": "stack_5_block2_sortcut_bn/gamma", "shape": [1152], "dtype": "float32", "quantization": {"dtype": "float16", "original_dtype": "float32"}}, {"name": "stack_5_block2_sortcut_bn/beta", "shape": [1152], "dtype": "float32", "quantization": {"dtype": "float16", "original_dtype": "float32"}}, {"name": "stack_5_block2_sortcut_bn/moving_mean", "shape": [1152], "dtype": "float32", "quantization": {"dtype": "float16", "original_dtype": "float32"}}, {"name": "stack_5_block2_sortcut_bn/moving_variance", "shape": [1152], "dtype": "float32", "quantization": {"dtype": "float16", "original_dtype": "float32"}}, {"name": "stack_5_block2_sortcut_conv/kernel", "shape": [1, 1, 192, 1152], "dtype": "float32", "quantization": {"dtype": "float16", "original_dtype": "float32"}}, {"name": "stack_5_block3_MB_dw_/depthwise_kernel", "shape": [3, 3, 1152, 1], "dtype": "float32", "quantization": {"dtype": "float16", "original_dtype": "float32"}}, {"name": "stack_5_block3_MB_dw_bn/gamma", "shape": [1152], "dtype": "float32", "quantization": {"dtype": "float16", "original_dtype": "float32"}}, {"name": "stack_5_block3_MB_dw_bn/beta", "shape": [1152], "dtype": "float32", "quantization": {"dtype": "float16", "original_dtype": "float32"}}, {"name": "stack_5_block3_MB_dw_bn/moving_mean", "shape": [1152], "dtype": "float32", "quantization": {"dtype": "float16", "original_dtype": "float32"}}, {"name": "stack_5_block3_MB_dw_bn/moving_variance", "shape": [1152], "dtype": "float32", "quantization": {"dtype": "float16", "original_dtype": "float32"}}, {"name": "stack_5_block3_MB_pw_bn/gamma", "shape": [192], "dtype": "float32", "quantization": {"dtype": "float16", "original_dtype": "float32"}}, {"name": "stack_5_block3_MB_pw_bn/beta", "shape": [192], "dtype": "float32", "quantization": {"dtype": "float16", "original_dtype": "float32"}}, {"name": "stack_5_block3_MB_pw_bn/moving_mean", "shape": [192], "dtype": "float32", "quantization": {"dtype": "float16", "original_dtype": "float32"}}, {"name": "stack_5_block3_MB_pw_bn/moving_variance", "shape": [192], "dtype": "float32", "quantization": {"dtype": "float16", "original_dtype": "float32"}}, {"name": "stack_5_block3_MB_pw_conv/kernel", "shape": [1, 1, 1152, 192], "dtype": "float32", "quantization": {"dtype": "float16", "original_dtype": "float32"}}, {"name": "stack_5_block3_se_1_conv/kernel", "shape": [1, 1, 1152, 48], "dtype": "float32", "quantization": {"dtype": "float16", "original_dtype": "float32"}}, {"name": "stack_5_block3_se_1_conv/bias", "shape": [48], "dtype": "float32", "quantization": {"dtype": "float16", "original_dtype": "float32"}}, {"name": "stack_5_block3_se_2_conv/kernel", "shape": [1, 1, 48, 1152], "dtype": "float32", "quantization": {"dtype": "float16", "original_dtype": "float32"}}, {"name": "stack_5_block3_se_2_conv/bias", "shape": [1152], "dtype": "float32", "quantization": {"dtype": "float16", "original_dtype": "float32"}}, {"name": "stack_5_block3_sortcut_bn/gamma", "shape": [1152], "dtype": "float32", "quantization": {"dtype": "float16", "original_dtype": "float32"}}, {"name": "stack_5_block3_sortcut_bn/beta", "shape": [1152], "dtype": "float32", "quantization": {"dtype": "float16", "original_dtype": "float32"}}, {"name": "stack_5_block3_sortcut_bn/moving_mean", "shape": [1152], "dtype": "float32", "quantization": {"dtype": "float16", "original_dtype": "float32"}}, {"name": "stack_5_block3_sortcut_bn/moving_variance", "shape": [1152], "dtype": "float32", "quantization": {"dtype": "float16", "original_dtype": "float32"}}, {"name": "stack_5_block3_sortcut_conv/kernel", "shape": [1, 1, 192, 1152], "dtype": "float32", "quantization": {"dtype": "float16", "original_dtype": "float32"}}, {"name": "stack_5_block4_MB_dw_/depthwise_kernel", "shape": [3, 3, 1152, 1], "dtype": "float32", "quantization": {"dtype": "float16", "original_dtype": "float32"}}, {"name": "stack_5_block4_MB_dw_bn/gamma", "shape": [1152], "dtype": "float32", "quantization": {"dtype": "float16", "original_dtype": "float32"}}, {"name": "stack_5_block4_MB_dw_bn/beta", "shape": [1152], "dtype": "float32", "quantization": {"dtype": "float16", "original_dtype": "float32"}}, {"name": "stack_5_block4_MB_dw_bn/moving_mean", "shape": [1152], "dtype": "float32", "quantization": {"dtype": "float16", "original_dtype": "float32"}}, {"name": "stack_5_block4_MB_dw_bn/moving_variance", "shape": [1152], "dtype": "float32", "quantization": {"dtype": "float16", "original_dtype": "float32"}}, {"name": "stack_5_block4_MB_pw_bn/gamma", "shape": [192], "dtype": "float32", "quantization": {"dtype": "float16", "original_dtype": "float32"}}, {"name": "stack_5_block4_MB_pw_bn/beta", "shape": [192], "dtype": "float32", "quantization": {"dtype": "float16", "original_dtype": "float32"}}, {"name": "stack_5_block4_MB_pw_bn/moving_mean", "shape": [192], "dtype": "float32", "quantization": {"dtype": "float16", "original_dtype": "float32"}}, {"name": "stack_5_block4_MB_pw_bn/moving_variance", "shape": [192], "dtype": "float32", "quantization": {"dtype": "float16", "original_dtype": "float32"}}, {"name": "stack_5_block4_MB_pw_conv/kernel", "shape": [1, 1, 1152, 192], "dtype": "float32", "quantization": {"dtype": "float16", "original_dtype": "float32"}}, {"name": "stack_5_block4_se_1_conv/kernel", "shape": [1, 1, 1152, 48], "dtype": "float32", "quantization": {"dtype": "float16", "original_dtype": "float32"}}, {"name": "stack_5_block4_se_1_conv/bias", "shape": [48], "dtype": "float32", "quantization": {"dtype": "float16", "original_dtype": "float32"}}, {"name": "stack_5_block4_se_2_conv/kernel", "shape": [1, 1, 48, 1152], "dtype": "float32", "quantization": {"dtype": "float16", "original_dtype": "float32"}}, {"name": "stack_5_block4_se_2_conv/bias", "shape": [1152], "dtype": "float32", "quantization": {"dtype": "float16", "original_dtype": "float32"}}, {"name": "stack_5_block4_sortcut_bn/gamma", "shape": [1152], "dtype": "float32", "quantization": {"dtype": "float16", "original_dtype": "float32"}}, {"name": "stack_5_block4_sortcut_bn/beta", "shape": [1152], "dtype": "float32", "quantization": {"dtype": "float16", "original_dtype": "float32"}}, {"name": "stack_5_block4_sortcut_bn/moving_mean", "shape": [1152], "dtype": "float32", "quantization": {"dtype": "float16", "original_dtype": "float32"}}, {"name": "stack_5_block4_sortcut_bn/moving_variance", "shape": [1152], "dtype": "float32", "quantization": {"dtype": "float16", "original_dtype": "float32"}}, {"name": "stack_5_block4_sortcut_conv/kernel", "shape": [1, 1, 192, 1152], "dtype": "float32", "quantization": {"dtype": "float16", "original_dtype": "float32"}}, {"name": "stack_5_block5_MB_dw_/depthwise_kernel", "shape": [3, 3, 1152, 1], "dtype": "float32", "quantization": {"dtype": "float16", "original_dtype": "float32"}}, {"name": "stack_5_block5_MB_dw_bn/gamma", "shape": [1152], "dtype": "float32", "quantization": {"dtype": "float16", "original_dtype": "float32"}}, {"name": "stack_5_block5_MB_dw_bn/beta", "shape": [1152], "dtype": "float32", "quantization": {"dtype": "float16", "original_dtype": "float32"}}, {"name": "stack_5_block5_MB_dw_bn/moving_mean", "shape": [1152], "dtype": "float32", "quantization": {"dtype": "float16", "original_dtype": "float32"}}, {"name": "stack_5_block5_MB_dw_bn/moving_variance", "shape": [1152], "dtype": "float32", "quantization": {"dtype": "float16", "original_dtype": "float32"}}, {"name": "stack_5_block5_MB_pw_bn/gamma", "shape": [192], "dtype": "float32", "quantization": {"dtype": "float16", "original_dtype": "float32"}}, {"name": "stack_5_block5_MB_pw_bn/beta", "shape": [192], "dtype": "float32", "quantization": {"dtype": "float16", "original_dtype": "float32"}}, {"name": "stack_5_block5_MB_pw_bn/moving_mean", "shape": [192], "dtype": "float32", "quantization": {"dtype": "float16", "original_dtype": "float32"}}, {"name": "stack_5_block5_MB_pw_bn/moving_variance", "shape": [192], "dtype": "float32", "quantization": {"dtype": "float16", "original_dtype": "float32"}}, {"name": "stack_5_block5_MB_pw_conv/kernel", "shape": [1, 1, 1152, 192], "dtype": "float32", "quantization": {"dtype": "float16", "original_dtype": "float32"}}, {"name": "stack_5_block5_se_1_conv/kernel", "shape": [1, 1, 1152, 48], "dtype": "float32", "quantization": {"dtype": "float16", "original_dtype": "float32"}}, {"name": "stack_5_block5_se_1_conv/bias", "shape": [48], "dtype": "float32", "quantization": {"dtype": "float16", "original_dtype": "float32"}}, {"name": "stack_5_block5_se_2_conv/kernel", "shape": [1, 1, 48, 1152], "dtype": "float32", "quantization": {"dtype": "float16", "original_dtype": "float32"}}, {"name": "stack_5_block5_se_2_conv/bias", "shape": [1152], "dtype": "float32", "quantization": {"dtype": "float16", "original_dtype": "float32"}}, {"name": "stack_5_block5_sortcut_bn/gamma", "shape": [1152], "dtype": "float32", "quantization": {"dtype": "float16", "original_dtype": "float32"}}, {"name": "stack_5_block5_sortcut_bn/beta", "shape": [1152], "dtype": "float32", "quantization": {"dtype": "float16", "original_dtype": "float32"}}, {"name": "stack_5_block5_sortcut_bn/moving_mean", "shape": [1152], "dtype": "float32", "quantization": {"dtype": "float16", "original_dtype": "float32"}}, {"name": "stack_5_block5_sortcut_bn/moving_variance", "shape": [1152], "dtype": "float32", "quantization": {"dtype": "float16", "original_dtype": "float32"}}, {"name": "stack_5_block5_sortcut_conv/kernel", "shape": [1, 1, 192, 1152], "dtype": "float32", "quantization": {"dtype": "float16", "original_dtype": "float32"}}, {"name": "stack_5_block6_MB_dw_/depthwise_kernel", "shape": [3, 3, 1152, 1], "dtype": "float32", "quantization": {"dtype": "float16", "original_dtype": "float32"}}, {"name": "stack_5_block6_MB_dw_bn/gamma", "shape": [1152], "dtype": "float32", "quantization": {"dtype": "float16", "original_dtype": "float32"}}, {"name": "stack_5_block6_MB_dw_bn/beta", "shape": [1152], "dtype": "float32", "quantization": {"dtype": "float16", "original_dtype": "float32"}}, {"name": "stack_5_block6_MB_dw_bn/moving_mean", "shape": [1152], "dtype": "float32", "quantization": {"dtype": "float16", "original_dtype": "float32"}}, {"name": "stack_5_block6_MB_dw_bn/moving_variance", "shape": [1152], "dtype": "float32", "quantization": {"dtype": "float16", "original_dtype": "float32"}}, {"name": "stack_5_block6_MB_pw_bn/gamma", "shape": [192], "dtype": "float32", "quantization": {"dtype": "float16", "original_dtype": "float32"}}, {"name": "stack_5_block6_MB_pw_bn/beta", "shape": [192], "dtype": "float32", "quantization": {"dtype": "float16", "original_dtype": "float32"}}, {"name": "stack_5_block6_MB_pw_bn/moving_mean", "shape": [192], "dtype": "float32", "quantization": {"dtype": "float16", "original_dtype": "float32"}}, {"name": "stack_5_block6_MB_pw_bn/moving_variance", "shape": [192], "dtype": "float32", "quantization": {"dtype": "float16", "original_dtype": "float32"}}, {"name": "stack_5_block6_MB_pw_conv/kernel", "shape": [1, 1, 1152, 192], "dtype": "float32", "quantization": {"dtype": "float16", "original_dtype": "float32"}}, {"name": "stack_5_block6_se_1_conv/kernel", "shape": [1, 1, 1152, 48], "dtype": "float32", "quantization": {"dtype": "float16", "original_dtype": "float32"}}, {"name": "stack_5_block6_se_1_conv/bias", "shape": [48], "dtype": "float32", "quantization": {"dtype": "float16", "original_dtype": "float32"}}, {"name": "stack_5_block6_se_2_conv/kernel", "shape": [1, 1, 48, 1152], "dtype": "float32", "quantization": {"dtype": "float16", "original_dtype": "float32"}}, {"name": "stack_5_block6_se_2_conv/bias", "shape": [1152], "dtype": "float32", "quantization": {"dtype": "float16", "original_dtype": "float32"}}, {"name": "stack_5_block6_sortcut_bn/gamma", "shape": [1152], "dtype": "float32", "quantization": {"dtype": "float16", "original_dtype": "float32"}}, {"name": "stack_5_block6_sortcut_bn/beta", "shape": [1152], "dtype": "float32", "quantization": {"dtype": "float16", "original_dtype": "float32"}}, {"name": "stack_5_block6_sortcut_bn/moving_mean", "shape": [1152], "dtype": "float32", "quantization": {"dtype": "float16", "original_dtype": "float32"}}, {"name": "stack_5_block6_sortcut_bn/moving_variance", "shape": [1152], "dtype": "float32", "quantization": {"dtype": "float16", "original_dtype": "float32"}}, {"name": "stack_5_block6_sortcut_conv/kernel", "shape": [1, 1, 192, 1152], "dtype": "float32", "quantization": {"dtype": "float16", "original_dtype": "float32"}}, {"name": "stack_5_block7_MB_dw_/depthwise_kernel", "shape": [3, 3, 1152, 1], "dtype": "float32", "quantization": {"dtype": "float16", "original_dtype": "float32"}}, {"name": "stack_5_block7_MB_dw_bn/gamma", "shape": [1152], "dtype": "float32", "quantization": {"dtype": "float16", "original_dtype": "float32"}}, {"name": "stack_5_block7_MB_dw_bn/beta", "shape": [1152], "dtype": "float32", "quantization": {"dtype": "float16", "original_dtype": "float32"}}, {"name": "stack_5_block7_MB_dw_bn/moving_mean", "shape": [1152], "dtype": "float32", "quantization": {"dtype": "float16", "original_dtype": "float32"}}, {"name": "stack_5_block7_MB_dw_bn/moving_variance", "shape": [1152], "dtype": "float32", "quantization": {"dtype": "float16", "original_dtype": "float32"}}, {"name": "stack_5_block7_MB_pw_bn/gamma", "shape": [192], "dtype": "float32", "quantization": {"dtype": "float16", "original_dtype": "float32"}}, {"name": "stack_5_block7_MB_pw_bn/beta", "shape": [192], "dtype": "float32", "quantization": {"dtype": "float16", "original_dtype": "float32"}}, {"name": "stack_5_block7_MB_pw_bn/moving_mean", "shape": [192], "dtype": "float32", "quantization": {"dtype": "float16", "original_dtype": "float32"}}, {"name": "stack_5_block7_MB_pw_bn/moving_variance", "shape": [192], "dtype": "float32", "quantization": {"dtype": "float16", "original_dtype": "float32"}}, {"name": "stack_5_block7_MB_pw_conv/kernel", "shape": [1, 1, 1152, 192], "dtype": "float32", "quantization": {"dtype": "float16", "original_dtype": "float32"}}, {"name": "stack_5_block7_se_1_conv/kernel", "shape": [1, 1, 1152, 48], "dtype": "float32", "quantization": {"dtype": "float16", "original_dtype": "float32"}}, {"name": "stack_5_block7_se_1_conv/bias", "shape": [48], "dtype": "float32", "quantization": {"dtype": "float16", "original_dtype": "float32"}}, {"name": "stack_5_block7_se_2_conv/kernel", "shape": [1, 1, 48, 1152], "dtype": "float32", "quantization": {"dtype": "float16", "original_dtype": "float32"}}, {"name": "stack_5_block7_se_2_conv/bias", "shape": [1152], "dtype": "float32", "quantization": {"dtype": "float16", "original_dtype": "float32"}}, {"name": "stack_5_block7_sortcut_bn/gamma", "shape": [1152], "dtype": "float32", "quantization": {"dtype": "float16", "original_dtype": "float32"}}, {"name": "stack_5_block7_sortcut_bn/beta", "shape": [1152], "dtype": "float32", "quantization": {"dtype": "float16", "original_dtype": "float32"}}, {"name": "stack_5_block7_sortcut_bn/moving_mean", "shape": [1152], "dtype": "float32", "quantization": {"dtype": "float16", "original_dtype": "float32"}}, {"name": "stack_5_block7_sortcut_bn/moving_variance", "shape": [1152], "dtype": "float32", "quantization": {"dtype": "float16", "original_dtype": "float32"}}, {"name": "stack_5_block7_sortcut_conv/kernel", "shape": [1, 1, 192, 1152], "dtype": "float32", "quantization": {"dtype": "float16", "original_dtype": "float32"}}, {"name": "stem_bn/gamma", "shape": [32], "dtype": "float32", "quantization": {"dtype": "float16", "original_dtype": "float32"}}, {"name": "stem_bn/beta", "shape": [32], "dtype": "float32", "quantization": {"dtype": "float16", "original_dtype": "float32"}}, {"name": "stem_bn/moving_mean", "shape": [32], "dtype": "float32", "quantization": {"dtype": "float16", "original_dtype": "float32"}}, {"name": "stem_bn/moving_variance", "shape": [32], "dtype": "float32", "quantization": {"dtype": "float16", "original_dtype": "float32"}}, {"name": "stem_conv/kernel", "shape": [3, 3, 3, 32], "dtype": "float32", "quantization": {"dtype": "float16", "original_dtype": "float32"}}]}]}